model/Reversi_6_6_ver3.model (torch, 805149 bytes, 21 tensors)

conv1.weight f4 [32, 4, 3, 3]
-0.020604359 -0.11205276 -0.027537068 0.062431935 0.06684119 0.01275874 -0.089476064 -0.08402091
-0.09669734 -0.1304635 0.038255397 -0.045550346 0.06591387 -0.013054299 0.027766582 -0.04323629
-0.07750828 -0.057733648 -0.16677512 -0.12151536 0.0030964226 -0.13953982 -0.14529173 0.10198429
-0.12672792 0.19047412 0.10636161 -0.219274 0.1492596 -0.11586929 -0.097077265 0.113128036
-0.04949096 -0.14322843 -0.071710624 0.08299906 -0.03701566 -0.13773946 0.08873713 -0.032769494
-0.15935682 0.025398044 0.03160073 0.06755136 0.036776517 -0.1477624 -0.10322753 0.045650136
-0.066901706 -0.01554106 0.03603188 -0.027157074 -0.015618546 -0.0031849951 -0.021650862 -0.16233887
0.109420575 0.22621366 -0.026609335 -0.067246206 -0.06875548 -0.07796596 -0.07482278 0.09259585
0.21544398 -0.03840511 -0.0727088 -0.04440516 -0.16281582 0.008131152 0.0158766 0.016920434
-0.064434685 0.066203535 0.047412712 -0.031562127 -0.07768734 0.17010026 0.010057123 -0.07101227
0.02344358 -0.16712895 0.04811862 -0.06989741 0.121997245 -0.03804606 0.08235461 -0.008422197
-0.14174192 0.02522417 0.19221553 0.003660841 -0.025483642 0.12376516 -0.08663942 0.04781952
-0.0456177 -0.13892965 -0.018562937 0.1811978 0.09206096 0.067890964 0.045006577 0.18955608
-0.019792601 0.045193076 0.109876804 -0.04468293 0.03472537 -0.021222608 0.020921053 -0.1348936
0.034319192 -0.07123827 0.034906074 -0.025475822 -0.018077442 -0.045626987 0.08401743 0.1035593
-0.064307146 0.022837533 -0.07439857 0.14138877 -0.0057545193 0.030236073 -0.0321615 0.2130352
-0.07686409 0.29255986 0.051511 0.18159355 -0.06542501 0.21147285 -0.07212586 0.22990584
-0.03750214 0.02618546 0.09951379 0.035030313 0.04168422 -0.025518838 -0.02642375 -0.024931276
0.08218536 0.05550794 -0.0214046 0.12441303 0.13446172 0.030057454 0.12143873 0.17569993
0.04484222 -0.011703802 -0.042119436 -0.08434743 0.009856892 0.41847682 -0.029928554 0.1824506
0.06950391 0.053910237 -0.002514417 0.034114216 0.0063534644 -0.025278244 -0.081270464 -0.00033754518
-0.0051722704 -0.020759853 0.011753614 -0.013291486 0.013539461 0.0089112865 -0.014151003 -0.051481508
0.008414346 0.0068471483 -0.0010745353 0.0021743462 0.24215609 0.08752727 -0.025920067 0.009811774
0.054575887 -0.12100252 0.007174361 -0.086722635 0.034355134 0.20163202 -0.048966967 -0.03287142
0.17853145 -0.08876184 -0.09198282 -0.01762075 0.033730187 0.05003282 -0.26998526 -0.04162779
0.015874403 0.08993781 -0.06803556 -0.08193246 -0.11396186 0.14975016 -0.0024989126 -0.0807522
-0.17334718 0.061551753 -0.081528716 -0.016935932 -0.01957965 -0.015956813 0.04389992 0.10682109
-0.08594611 0.08235827 0.003895204 0.0071697473 -0.029250896 0.038103648 0.021056216 0.011937447
-0.11746388 -0.07471345 0.091039956 -0.03501793 0.04392149 -0.018071158 -0.08142339 0.035006303
-0.054602254 -0.10438905 -0.078364916 -0.07199618 0.0743247 0.14521167 0.35938498 -0.08187803
0.048728097 0.2263283 0.122310035 0.08874629 -0.039038904 0.054851808 -0.07993439 0.051148944
0.15798059 -0.03926093 0.092693314 0.19401291 -0.02145626 -0.03409978 -0.00660871 0.051437028
00000000: 79ca a8bc eb7b e5bd 6b95 e1bc a1b8 7f3d
00000010: 09e4 883d 090a 513c 3a3f b7bd 2813 acbd
00000020: 4109 c6bd 3998 05be b1b1 1c3d 0093 3abd
00000030: dafd 863d b3e1 55bc be76 e33c 8918 31bd
00000040: a9bc 9ebd 1e7a 6cbd 19c7 2abe 0cdd f8bd
00000050: 5aed 4a3b 87e3 0ebe 5bc7 14be 24dd d03d
00000060: f7c4 01be a60b 433e 1ed4 d93d 5d89 60be
00000070: 82d7 183e e14c edbd 72d0 c6bd acaf e73d
00000080: 08b7 4abd 79aa 12be 05dd 92bd 69fb a93d
00000090: bc9d 17bd 930b 0dbe d0bb b53d 4e39 06bd
000000a0: 6f2e 23be 8f0f d03c c46f 013d 5e58 8a3d
000000b0: f9a2 163d 074f 17be f568 d3bd a3fb 3a3d
000000c0: c303 89bd ee9f 7ebc 2a96 133d 8378 debc
000000d0: eee4 7fbc 5abb 50bb 265d b1bc 293c 26be
000000e0: e517 e03d 8ea4 673e d2fb d9bc 61b8 89bd
000000f0: accf 8cbd 9eac 9fbd b03c 99bd e5a2 bd3d
00000100: 599d 5c3e ad4e 1dbd 5ae8 94bd 2fe2 35bd
00000110: 31b9 26be 8638 053c a50f 823c b99c 8a3c
00000120: 55f6 83bd b895 873d d533 423d 4a47 01bd
00000130: 8a1a 9fbd c32e 2e3e a2c6 243c e26e 91bd
00000140: c00c c03c da23 2bbe 0818 453d 6026 8fbd
00000150: b1d9 f93d 2fd6 1bbd 89a9 a83d 41fd 09bc
00000160: cb24 11be eba2 ce3c 26d4 443e b8ea 6f3b
00000170: 12c3 d0bc 9778 fd3d 0270 b1bd 67de 433d
00000180: a0d9 3abd 9343 0ebe 4d11 98bc eb8b 393e
00000190: 758a bc3d 6b0a 8b3d d158 383d fd1a 423e
000001a0: 1824 a2bc 601c 393d 1707 e13d 7305 37bd
000001b0: 313c 0e3d 09db adbc a162 ab3c 8c21 0abe
000001c0: 4892 0c3d 5fe5 91bd acf9 0e3d acb2 d0bc
000001d0: 2517 94bc 5de3 3abd 5511 ac3d e616 d43d
000001e0: 77b3 83bd c715 bb3c 475e 98bd 38c8 103e
000001f0: 6890 bcbb a4b1 f73c c7bb 03bd e625 5a3e
00000200: ec6a 9dbd 68ca 953e 33fd 523d a9f3 393e
00000210: 8cfd 85bd 578c 583e b9b6 93bd 706c 6b3e
00000220: d89b 19bd e482 d63c e3cd cb3d f27b 0f3d
00000230: 13bd 2a3d e20c d1bc 9f76 d8bc ad3c ccbc
00000240: cc50 a83d 4b5c 633d b358 afbc 42cc fe3d
00000250: 55b0 093e 0d3b f63c deb4 f83d afea 333e
00000260: 7aac 373d 4ec1 3fbc 6e85 2cbd 58be acbd
00000270: cd7e 213c 9842 d63e ba2c f5bc 55d4 3a3e
00000280: 1158 8e3d fbd0 5c3d ebc8 24bb 59bb 0b3d
00000290: b930 d03b 5214 cfbc 2171 a6bd 8cf8 b0b9
000002a0: 267c a9bb 9110 aabc 3b92 403c 88c4 59bc
000002b0: 9ed4 5d3c a500 123c 9cd9 67bc 46de 52bd
000002c0: 53dc 093c 0b5e e03b 6cd7 8cba 7a7f 0e3b
000002d0: c4f7 773e 7f41 b33d 5256 d4bc 90c1 203c
000002e0: f78a 5f3d 2bd0 f7bd e716 eb3b a39b b1bd
000002f0: f8b7 0c3d a078 4e3e 9691 48bd 2fa4 06bd
00000300: f3d0 363e c4c8 b5bd 7d61 bcbd 6459 90bc
00000310: aa28 0a3d 37ef 4c3d 823b 8abe e781 2abd
00000320: 090b 823c 5131 b83d 3a56 8bbd 35cc a7bd
00000330: d664 e9bd 1b58 193e ccc4 23bb 6961 a5bd
00000340: ec81 31be b11d 7c3d 87f8 a6bd 39bd 8abc
00000350: 8165 a0bc ddb7 82bc 67d0 333d 04c5 da3d
00000360: 8404 b0bd 74ab a83d ae46 7f3b 33f0 ea3b
00000370: 939f efbc 9212 1c3d 167e ac3c 4895 433c
00000380: e790 f0bd 5e03 99bd 2873 ba3d f66e 0fbd
00000390: 05e7 333d f709 94bc 4ec1 a6bd c562 0f3d
000003a0: 9da6 5fbd edc9 d5bd c97d a0bd bc72 93bd
000003b0: 8c37 983d 5eb2 143e 4f01 b83e abaf a7bd
000003c0: 1d97 473d 9bc2 673e af7d fa3d 9dc0 b53d
000003d0: 42e7 1fbd 4aac 603d a4b4 a3bd 8e81 513d
000003e0: aac5 213e 12d0 20bd fed5 bd3d 52ab 463e
000003f0: 0ac5 afbc 36ac 0bbd e18d d8bb a2af 523d

conv1.bias f4 [32]
2.4502804e-05 3.6753565e-05 2.4699311e-06 -5.314364e-06 8.019646e-05 -2.752378e-05 -2.5329724e-05 7.3105744e-05
-6.2346306e-05 -9.743549e-05 5.763396e-05 -2.752075e-05 -5.548835e-05 5.081144e-05 -3.300216e-05 -4.2187683e-05
-3.9921066e-05 -7.692962e-05 -2.7879334e-05 -5.1811526e-06 -5.3800835e-05 4.7994654e-05 5.8596477e-05 3.544179e-05
6.0009228e-05 -5.8123824e-05 -2.5543655e-05 -6.280024e-05 -2.113367e-05 -0.00014076353 -7.2231625e-05 0.00011501815
00000000: 5f8b cd37 d727 1a38 18c1 2536 0a52 b2b6
00000010: 262f a838 dee2 e6b7 2b7b d4b7 5950 9938
00000020: ebbf 82b8 4856 ccb8 febb 7138 5cdc e6b7
00000030: 2abc 68b8 5e1e 5538 cd6b 0ab8 aef2 30b8
00000040: eb70 27b8 4655 a1b8 6ade e9b7 c3d9 adb6
00000050: 35a8 61b8 de4d 4938 7dc5 7538 55a7 1438
00000060: 6bb2 7b38 fbc9 73b8 9546 d6b7 9fb3 83b8
00000070: 3648 b1b7 ec99 13b9 0f7b 97b8 e635 f138

conv2.weight f4 [16, 32, 3, 3]
0.018758044 -0.038146775 0.077341355 0.017080525 -0.003102116 0.008012732 0.072325885 -0.027711807
-0.06283812 -0.031645652 0.061371412 -0.006106208 0.018291097 -0.011624999 -0.036201242 -0.08659598
-0.016243838 0.055496912 0.023972338 -0.009778051 -0.12586845 0.020143038 -0.15610406 -0.027344272
0.015897492 -0.011034389 -0.057162084 -0.01598313 0.052102268 -0.0058155656 0.036376387 -0.029597955
0.07166014 0.03428606 0.009633166 -0.010873682 -0.019613868 -0.018444981 0.09794473 0.01018377
0.066625774 0.11173012 -0.06541836 -0.05835625 -0.027922086 0.022027249 0.05303511 -0.058611084
-0.075806506 -0.11540628 0.018747801 0.0022497645 -0.023535004 -0.0032820862 -0.09184738 0.022512775
-0.0005736636 0.0356338 -0.009680268 -0.08784145 0.031063907 -0.06929419 0.047558196 0.022501877
0.067764774 0.0766422 0.026834294 -0.14869355 0.007788402 0.004878996 -0.008318458 0.04772849
-0.07186156 0.01870361 -0.035885807 -0.01612511 -0.027365118 -0.06629809 0.015982002 -0.0014535405
-0.043423053 0.005412985 0.080021665 -0.032749876 0.027861267 -0.018710347 -0.012766018 -0.04588374
-0.050149597 -0.13388096 -0.002987226 0.037040748 0.026690189 -0.007838697 0.0917945 0.12216931
-0.026450785 0.027913718 0.15673667 0.080896586 -0.0074324575 -0.0015366949 0.06811098 0.05128682
-0.01075734 0.047733437 -0.023237392 -0.023553014 -0.03208178 0.068980254 -0.024871508 -0.030581353
0.077660315 0.0129178595 0.044531822 -0.014990588 -0.07822725 -0.014777785 0.0490889 -0.025315747
-0.031568117 -0.09102555 0.11800438 -0.060205862 0.05640181 0.062946424 0.039997425 -0.0327118
0.014686996 0.017181704 -0.012545492 0.020669775 -0.085200526 -0.017396783 0.07005835 0.039060403
-0.04843025 0.00036266932 -0.076543696 0.1467154 0.037640974 0.051248427 0.01288355 -0.11434553
0.042591456 0.014055758 -0.03899755 -0.0023594946 -0.03813798 0.014104299 0.010833976 -0.050514553
0.08904679 -0.026925182 -0.11656017 -0.016472595 -0.016267743 -0.051545538 -0.076736815 0.05615985
0.09322254 -0.08807409 -0.0050990307 -0.014597409 0.028871823 0.051297765 0.045417566 -0.038529955
0.004383063 -0.010454517 -0.022329072 -0.043735735 -0.040636603 -0.023002593 -0.054574676 0.059844848
0.03971753 -0.06682196 0.0006538946 -0.035489906 -0.07364657 0.042618558 -0.07535194 -0.04196923
0.114893824 -0.099137686 -0.067910716 0.07578969 0.02929844 0.03360392 -0.03203716 0.029179327
0.062153958 -0.07572092 -0.1284674 0.020999845 -0.058905225 0.011406563 0.029641341 0.06476086
0.036837723 -0.04141979 0.029142449 -0.048448194 -0.0043909494 -0.019599292 0.06899306 -0.021900754
-0.06261319 -0.0036867354 -0.04192441 0.017941043 0.0798084 -0.022776991 0.0070661516 -0.04151467
0.046943173 0.017661242 -0.04836645 0.09154196 0.0043377206 -0.033451125 0.040359892 -0.050098956
0.022990014 0.014792291 -0.12427717 -0.091097705 -0.11296499 0.0057713855 -0.017230373 0.08212408
-0.03014628 -0.00820449 -0.01872081 0.1181192 0.12185923 -0.050714884 -0.16444717 -0.02975175
-0.034032457 0.09352134 0.06890991 0.024967868 -0.02473168 0.016366145 -0.021532064 0.08099881
-0.008302786 -0.013330152 -0.019797882 0.012507203 -0.08448124 0.040970728 -0.0019236078 -0.055240236
00000000: 78aa 993c cb3f 1cbd 2565 9e3d 75ec 8b3c
00000010: df4c 4bbb d547 033c 981f 943d df03 e3bc
00000020: 46b1 80bd df9e 01bd 9760 7b3d 9616 c8bb
00000030: 36d7 953c c876 3ebc c147 14bd 3c59 b1bd
00000040: cc11 85bc bb50 633d a361 c43c 1e34 20bc
00000050: a9e3 00be 0303 a53c bed9 1fbe 1801 e0bc
00000060: 753b 823c 95c9 34bc ca22 6abd 0eef 82bc
00000070: 3069 553d 8090 bebb 68ff 143d 6977 f2bc
00000080: 8dc2 923d 8a6f 0c3d 6dd4 1d3c 8727 32bc
00000090: 43ad a0bc ee19 97bc 3f97 c83d d4d9 263c
000000a0: 1873 883d c3d2 e43d 10fa 85bd f706 6fbd
000000b0: dcbc e4bc 7d72 b43c 583b 593d 2d12 70bd
000000c0: 7140 9bbd 215a ecbd fd94 993c c970 133b
000000d0: 7bcc c0bc 4518 57bb 7b1a bcbd b66c b83c
000000e0: ea61 16ba bff4 113d fd99 1ebc 38e6 b3bd
000000f0: bc79 fe3c 1dea 8dbd 62cc 423d db55 b83c
00000100: 42c8 8a3d 96f6 9c3d 98d3 db3c 1f43 18be
00000110: da35 ff3b fcdf 9f3b 244a 08bc f37e 433d
00000120: 272c 93bd 5038 993c fffc 12bd cf18 84bc
00000130: d02c e0bc 4bc7 87bd b0ec 823c ba84 beba
00000140: 5fdc 31bd 695f b13b 66e2 a33d bc24 06bd
00000150: 503d e43c 7146 99bc 8f28 51bc 97f0 3bbd
00000160: aa69 4dbd 1718 09be 56c5 43bb 0ab8 173d
00000170: 62a5 da3c e16d 00bc c1fe bb3d e733 fa3d
00000180: 51af d8bc 4fab e43c 947f 203e 1cad a53d
00000190: f98b f3bb ed6a c9ba c57d 8b3d 2112 523d
000001a0: 8e3f 30bc 2384 433d 585c bebc 40f2 c0bc
000001b0: 2f68 03bd 8545 8d3d 55bf cbbc bf85 fabc
000001c0: 5f0c 9f3d 6ea5 533c 0067 363d 159b 75bc
000001d0: 9c35 a0bd 861e 72bc 7111 493d f862 cfbc
000001e0: 924d 01bd 9b6b babd 48ac f13d 6c9a 76bd
000001f0: 9605 673d 0eea 803d 57d4 233d cffc 05bd
00000200: baa1 703c a5c0 8c3c 9b8b 4dbc a953 a93c
00000210: 9d7d aebd b383 8ebc c17a 8f3d cdfd 1f3d
00000220: cc5e 46bd a724 be39 f1c2 9cbd 903c 163e
00000230: 6c2d 1a3d dfe9 513d 8615 533c fd2d eabd
00000240: 6174 2e3d 1f4a 663c e5bb 1fbd c0a1 1abb
00000250: 9236 1cbd b815 673c fd80 313c 59e8 4ebd
00000260: 2a5e b63d 3392 dcbc 19b7 eebd 89f1 86bc
00000270: ee43 85bc 6a21 53bd 3128 9dbd df07 663d
00000280: 76eb be3d 3060 b4bd c515 a7bb f929 6fbc
00000290: 9a84 ec3c 9b1d 523d c507 3a3d 96d1 1dbd
000002a0: cc9f 8f3b 6c49 2bbc 75eb b6bc 3e24 33bd
000002b0: 9172 26bd ef6f bcbc b289 5fbd df1f 753d
000002c0: d9ae 223d f4d9 88bd 206a 2b3a dd5d 11bd
000002d0: 03d4 96bd cc90 2e3d 1e52 9abd ede7 2bbd
000002e0: 744d eb3d b308 cbbd c614 8bbd a037 9b3d
000002f0: 4803 f03c 44a4 093d 6639 03bd 7c09 ef3c
00000300: 2695 7e3d 9213 9bbd f58c 03be de07 ac3c
00000310: 9b46 71bd 98e2 3a3c 66d2 f23c 57a1 843d
00000320: 27e3 163d cca7 29bd 25bc ee3c 9d71 46bd
00000330: f4e1 8fbb b28e a0bc 3c4c 8d3d 3669 b3bc
00000340: 583b 80bd 289d 71bb eeb8 2bbd 18f9 923c
00000350: 9672 a33d d096 babc 2d8b e73b 490b 2abd
00000360: 7c47 403d 4fae 903c e61b 46bd 5a7a bb3d
00000370: 7023 8e3b 0c04 09bd 6a50 253d 9034 4dbd
00000380: 8e55 bc3c 5e5b 723c 0785 febd 6f91 babd
00000390: 305a e7bd e41d bd3b b626 8dbc ab30 a83d
000003a0: 55f5 f6bc 206c 06bc 625c 99bc 7be8 f13d
000003b0: 5591 f93d 69ba 4fbd d764 28be f1b9 f3bc
000003c0: 9e65 0bbd 1e88 bf3d a420 8d3d 6a89 cc3c
000003d0: 189a cabc 4b12 863c 0364 b0bc b4e2 a53d
000003e0: 6908 08bc b666 5abc 2b2f a2bc 03eb 4c3c
000003f0: 8004 adbd ecd0 273d 9121 fcba 9643 62bd

conv2.bias f4 [16]
-1.7651357e-05 6.216293e-05 2.5710218e-05 -2.5961719e-05 -3.1829724e-05 -4.4439126e-05 2.1423068e-05 -3.3633416e-05
3.3022607e-05 1.638416e-05 -3.8841445e-05 -2.32759e-07 -3.484254e-05 1.9920553e-05 -1.8169834e-05 -1.3933487e-05
00000000: 0012 94b7 785d 8238 46ac d737 5ec8 d9b7
00000010: e880 05b8 2664 3ab8 b0b5 b337 9b11 0db8
00000020: c181 0a38 b770 8937 afe9 22b8 4fec 79b4
00000030: e423 12b8 101b a737 6c6b 98b7 dfc3 69b7

bn1.weight f4 [32]
1.0287908 0.8985732 0.9236497 0.9710078 1.206509 1.014792 1.0227597 0.9771552
0.9657814 0.89999896 0.93434435 0.8904554 0.9351711 0.988663 0.9254508 0.973243
0.9748438 0.9589011 0.94401664 0.9700463 0.989592 0.9012978 0.98954785 1.0095433
0.9378625 1.0039698 1.1050707 0.9198866 1.0078367 1.0179739 0.9759068 1.0080842
00000000: 6baf 833f e508 663f 4f74 6c3f f893 783f
00000010: e36e 9a3f b4e4 813f cae9 823f d826 7a3f
00000020: 733d 773f 5566 663f 3131 6f3f e3f4 633f
00000030: 6067 6f3f 0519 7d3f 58ea 6c3f 7426 793f
00000040: 5d8f 793f 8b7a 753f 13ab 713f f454 783f
00000050: e755 7d3f 74bb 663f 0253 7d3f b738 813f
00000060: c217 703f 1582 803f f572 8d3f b07d 6b3f
00000070: cb00 813f f84c 823f 07d5 793f e708 813f

bn1.bias f4 [32]
0.0020818699 0.19957133 -0.1133719 -0.0034379312 -0.0919844 -0.0523943 -0.075701214 -0.020840643
-0.06153524 0.008142578 -0.1559131 -0.11147272 0.083908215 -0.093328044 0.058163572 0.080289595
-0.13301091 -0.022203378 -0.008767494 -0.043495875 -0.10515569 -0.013216681 0.07234406 -0.06501153
-0.014503143 0.018981298 -0.2055159 -0.09037662 0.035713542 0.022449497 -0.16782142 -0.03672173
00000000: fb6f 083b 6d5c 4c3e 872f e8bd ea4e 61bb
00000010: 5162 bcbd 689b 56bd 3d09 9bbd ffb9 aabc
00000020: 600c 7cbd 7368 053c afa7 1fbe cf4b e4bd
00000030: 12d8 ab3d c622 bfbd ed3c 6e3d df6e a43d
00000040: 0334 08be dce3 b5bc 89a5 0fbc bb28 32bd
00000050: de5b d7bd c78a 58bc 1f29 943d c424 85bd
00000060: 979e 6dbc ab7e 9b3c c372 52be 6117 b9bd
00000070: 5d48 123d 02e8 b73c 61d9 2bbe 8669 16bd

bn1.running_mean f4 [32]
-0.14834297 -0.097537346 0.058397736 0.18732949 0.17417794 -0.032095164 0.15810922 0.044978537
0.006921546 0.04727745 0.025883356 0.110304646 0.103088 0.09305584 -0.059177537 -0.064456925
0.04351782 -0.0030977007 0.06495991 -0.20791148 0.08912173 -0.08475778 0.06280751 -0.05124432
0.17017385 -0.23698968 0.053380165 -0.1443085 -0.069029294 0.12915336 -0.06252715 0.07036298
00000000: 38e7 17be a9c1 c7bd 7732 6f3d 4dd3 3f3e
00000010: b45b 323e 3876 03bd 62e7 213e 6a3b 383d
00000020: 23ce e23b 00a6 413d 5509 d43c 67e7 e13d
00000030: cd1f d33d 0f94 be3d 2564 72bd fe01 84bd
00000040: be3f 323d cb02 4bbb b409 853d bfe6 54be
00000050: 7485 b63d 7d95 adbd 39a1 803d 90e5 51bd
00000060: 0e42 2e3e 6cad 72be 29a5 5a3d 9cc5 13be
00000070: 3b5f 8dbd c740 043e 3c0e 80bd 771a 903d

bn1.running_var f4 [32]
0.05161145 0.035078857 0.033517294 0.05836408 0.04866883 0.040423222 0.057748504 0.060946308
0.04864419 0.04814783 0.045400027 0.047884118 0.052805692 0.044911936 0.044813532 0.03906982
0.034387663 0.040756244 0.03677458 0.059503254 0.053444333 0.05539861 0.043344844 0.048900645
0.05120783 0.0644625 0.052796286 0.0373981 0.05783333 0.050327703 0.057866435 0.04788136
00000000: 8766 533d d9ae 0f3d 6e49 093d 2c0f 6f3d
00000010: f858 473d d292 253d b289 6c3d d6a2 793d
00000020: 213f 473d a936 453d 61f5 393d 2322 443d
00000030: c84a 583d 94f5 373d 658e 373d ad07 203d
00000040: 14da 0c3d 05f0 263d f1a0 163d afb9 733d
00000050: 72e8 5a3d a7e9 623d 5d8a 313d 0b4c 483d
00000060: 4dbf 513d ea04 843d eb40 583d c02e 193d
00000070: a4e2 6c3d 6c24 4e3d 5b05 6d3d 3f1f 443d

bn2.weight f4 [16]
1.3047668 1.4287694 1.2889948 1.2876453 1.3241085 1.2265947 1.5310439 1.271493
1.3625101 1.4130923 1.4111288 1.2620581 1.3832417 1.4310718 1.2927792 1.3003049
00000000: 9902 a73f eae1 b63f c8fd a43f 90d1 a43f
00000010: 637c a93f 0e01 9d3f 3ff9 c33f 48c0 a23f
00000020: bb66 ae3f 35e0 b43f de9f b43f 1f8b a13f
00000030: 100e b13f 5c2d b73f ca79 a53f 6470 a63f

bn2.bias f4 [16]
0.018794216 -0.09021823 0.05043583 -0.09917207 0.02199573 -0.084588386 -0.1726405 0.031947345
-0.041945275 -0.14286849 -0.033444524 -0.04866031 -0.10120157 -0.12655695 -0.033710957 -0.05016598
00000000: 54f6 993c 56c4 b8bd cd95 4e3d ba1a cbbd
00000010: 6430 b43c ad3c adbd acc8 30be 38db 023d
00000020: cfce 2bbd 1e4c 12be 20fd 08bd 0950 47bd
00000030: c542 cfbd 2598 01be 8014 0abd d87a 4dbd

bn2.running_mean f4 [16]
-0.11175999 -0.09904561 0.07848394 0.19139665 0.12483984 0.23330435 0.0352699 -0.22210805
0.37104067 -0.049919073 0.29307988 -0.1147365 0.2633907 0.33869523 -0.15658379 0.011753899
00000000: 6ce2 e4bd 6dd8 cabd 30bc a03d 7cfd 433e
00000010: 08ac ff3d 56e7 6e3e 2c77 103d 4b70 63be
00000020: 0bf9 bd3e f177 4cbd 910e 963e f8fa eabd
00000030: 25db 863e 7669 ad3e 8057 20be 6d93 403c

bn2.running_var f4 [16]
0.2964484 0.2633582 0.30882037 0.2542585 0.24556687 0.29291248 0.4196882 0.30802807
0.23817864 0.27078772 0.34018332 0.25817138 0.44081163 0.30393627 0.1787027 0.31841317
00000000: 16c8 973e e3d6 863e b41d 9e3e 2c2e 823e
00000010: e275 7b3e a0f8 953e 5fe1 d63e dbb5 9d3e
00000020: 1ae5 733e b0a4 8a3e 822c ae3e 0a2f 843e
00000030: 10b2 e13e 899d 9b3e d7fd 363e 0d07 a33e

lin1.weight f4 [256, 576]
0.00020008736 -0.019548405 -0.0015948993 0.08371641 0.049318343 0.056725774 0.0719707 -0.0685838
-0.024408525 -0.0048301723 -0.055266228 -0.08314812 0.035499573 0.030855827 0.02346148 0.030388571
0.00027360467 -0.06660463 -0.04368264 0.01092712 -0.007729244 -0.0072407094 -0.031188408 -0.116563454
-0.015012891 -0.055679813 -0.05538841 0.050783474 0.082116984 0.08165086 -0.0017086554 -0.04864981
0.003636834 -0.042555846 0.0668152 0.043777872 0.01553231 -0.11939963 0.014102871 0.01637168
-0.0020726766 0.039414138 -0.028793046 -0.09020459 -0.10524194 0.04293805 0.039893147 -0.15017426
0.08368789 0.10684792 0.017167473 -0.013430213 -0.01506064 -0.10543856 0.03438657 -0.012453143
0.07191465 0.037432283 -0.029296888 -0.023796612 0.002619613 -0.0858335 -0.08690477 -0.018976524
0.038876355 0.06398015 0.066452764 -0.0058372407 -0.007381335 -0.038994692 0.09279861 0.021605473
0.02470098 0.025187476 0.027948245 0.07897383 0.009513242 -0.039474897 0.015390706 0.033068847
-0.015640398 -0.021927157 -0.03243483 -0.084034674 -0.029472688 0.008516566 -0.01625837 -0.02383888
-0.022193305 -0.0007210038 0.06971168 0.0723119 -0.038887594 -0.04766094 -0.017652886 0.08394123
0.010686635 0.02329264 -0.042973723 -0.027736811 0.01566931 -0.0025858616 -0.013096158 -0.04488563
-0.12813957 -0.061658565 -0.022333188 -0.048873108 -0.06121539 0.017293574 -0.0059587248 -0.010244542
-0.029443346 0.046216346 0.03746555 0.037716918 0.011464215 -0.022316555 0.033107642 0.06722564
0.009033964 0.010331326 0.006588181 0.031869296 -0.02537754 0.059767444 0.028041365 -0.02880241
-0.016051667 -0.057232156 0.019595161 0.04152525 0.07939 -0.027716324 -0.008649209 -0.1235019
-0.046726346 -0.05799748 -0.009707087 -0.04946947 0.08243694 0.07868625 0.0720584 0.049136713
0.036811665 -0.019411441 -0.023153512 0.03190932 -0.001933468 -0.0009914344 0.002145043 0.0105769215
-0.04783953 -0.07598834 0.035621863 -0.09459172 0.064853676 0.02826744 0.044356763 0.040427446
0.028295167 -0.01624914 -0.07365232 -0.00683937 0.03235463 0.01086487 -0.006185828 -0.005248267
0.011317423 -0.05286543 -0.036708962 -0.059038073 0.02666127 -0.03419997 0.050655484 0.050635763
-0.0055980277 0.036765475 -0.051240474 -0.020132026 -0.015560409 -0.0052456195 0.010687593 0.011476863
-0.06985023 0.07227591 0.028421901 0.057813164 -0.06299472 -0.024363665 -0.07716606 0.021914555
0.0049264734 0.0025772124 0.032061912 -0.055535797 -0.042383 -0.011333807 0.12297294 0.04174378
0.040204406 0.07536206 0.06315433 0.014188333 -0.033704534 -0.06330849 -0.008342033 -0.008649158
-0.02913265 0.10773729 -0.0009182737 -0.05221968 0.060025062 0.014779558 -0.027907452 0.07765898
-0.11527604 0.021557383 0.08490806 0.0039950507 -0.11717791 0.05601206 -0.14863288 -0.037222482
-0.049738877 -0.008936726 -0.08509261 0.04795011 0.02653079 0.060187615 -0.008725271 0.083114326
0.032870818 -0.0055226022 -0.017538596 0.036499172 -0.005805506 0.078333326 0.0041674995 -0.07832299
-0.03286568 0.032101225 -0.059452247 -0.02816546 -0.08552905 0.13323657 -0.050940264 0.09293781
-0.07904021 -0.041337393 -0.020594934 0.074934244 -0.042399704 0.032531943 0.081385896 -0.011306203
00000000: 8bce 5139 fa23 a0bc f10b d1ba 8273 ab3d
00000010: 0802 4a3d 4959 683d 6065 933d aa75 8cbd
00000020: 63f4 c7bc 6c46 9ebb d75e 62bd 9049 aabd
00000030: 0068 113d 5cc5 fc3c 4a32 c03c 74f1 f83c
00000040: 9972 8f39 0268 88bd 91ec 32bd aa07 333c
00000050: 9945 fdbb 7943 edbb d57e ffbc d2b8 eebd
00000060: a1f8 75bc 8410 64bd f5de 62bd 5502 503d
00000070: f32c a83d 9138 a73d f6f4 dfba 0645 47bd
00000080: f357 6e3b 0a4f 2ebd 68d6 883d 6d50 333d
00000090: 3b7b 7e3c cb87 f4bd ba0f 673c e71d 863c
000000a0: bed5 07bb b870 213d 65df ebbc 2fbd b8bd
000000b0: 1689 d7bd cfdf 2f3d ff66 233d 48c7 19be
000000c0: 8e64 ab3d 15d3 da3d cda2 8c3c 650a 5cbc
000000d0: e7c0 76bc 2cf0 d7bd efd8 0c3d 4408 4cbc
000000e0: fd47 933d 9852 193d 0700 f0bc 1df1 c2bc
000000f0: d0ad 2b3b 79c9 afbd 21fb b1bd a874 9bbc
00000100: d03c 1f3d 0608 833d 6318 883d 5346 bfbb
00000110: 20df f1bb e6b8 1fbd 330d be3d f6fd b03c
00000120: b659 ca3c f755 ce3c b8f3 e43c 08bd a13d
00000130: 6edd 1b3c 6eb0 21bd 4d29 7c3c 3373 073d
00000140: 4b20 80bc 95a0 b3bc 62da 04bd 5f1a acbd
00000150: b570 f1bc 1189 0b3c 4630 85bc c149 c3bc
00000160: bcce b5bc bf01 3dba ffc4 8e3d 4318 943d
00000170: 9948 1fbd 1e38 43bd c99c 90bc 61e9 ab3d
00000180: ff16 2f3c 35d0 be3c 3705 30bd 4f38 e3bc
00000190: ed5c 803c 8f77 29bb 4591 56bc ffd9 37bd
000001a0: 0537 03be b18d 7cbd 17f4 b6bc 2b2f 48bd
000001b0: fdbc 7abd 41ab 8d3c 6841 c3bb b9d8 27bc
000001c0: 2c33 f1bc 5a4d 3d3d 7a75 193d 0e7d 1a3d
000001d0: 67d4 3b3c 35d1 b6bc e19b 073d 99ad 893d
000001e0: 3103 143c b944 293c abe1 d73b 6189 023d
000001f0: 8fe4 cfbc b5ce 743d 01b7 e53c 08f3 ebbc
00000200: c97e 83bc 446c 6abd 0886 a03c 6116 2a3d
00000210: 3997 a23d 580d e3bc 69b5 0dbc 90ee fcbd
00000220: 2064 3fbd c48e 6dbd 790a 1fbc 80a0 4abd
00000230: b3d4 a83d 4226 a13d 5b93 933d 9443 493d
00000240: d4c7 163d be04 9fbc 6fac bdbc 59b3 023d
00000250: 6c6c fdba 05f3 81ba da93 0c3b d34a 2d3c
00000260: 62f3 43bd c69f 9bbd 3be8 113d 4eb9 c1bd
00000270: 01d2 843d 1e91 e73c 70af 353d 4097 253d
00000280: 44cb e73c eb1c 85bc 07d7 96bd cb1c e0bb
00000290: 4a86 043d 9102 323c 7cb2 cabb a8f9 abbb
000002a0: b66c 393c 6c89 58bd 235c 16bd e8d1 71bd
000002b0: bc68 da3c 4515 0cbd 207c 4f3d 7267 4f3d
000002c0: a96f b7bb 6597 163d 88e1 51bd ebeb a4bc
000002d0: 16f1 7ebc 72e3 abbb 041b 2f3c 7409 3c3c
000002e0: a30d 8fbd 6405 943d 0cd5 e83c 7fcd 6c3d
000002f0: 6003 81bd 4f96 c7bc 3d09 9ebd 2786 b33c
00000300: 416e a13b 73e6 283b 5a53 033d 8179 63bd
00000310: cc99 2dbd 6fb1 39bc 3dd9 fb3d 87fb 2a3d
00000320: 60ad 243d 6c57 9a3d 0f57 813d 2f76 683c
00000330: c40d 0abd e2a7 81bd 06ad 08bc 33b5 0dbc
00000340: 98a7 eebc 5ea5 dc3d 4eb8 70ba 4ee4 55bd
00000350: d7dc 753d f625 723c 2b9e e4bc ac0b 9f3d
00000360: d815 ecbd 1c99 b03c 47e4 ad3d eae8 823b
00000370: f9fa efbd e76c 653d 3833 18be 9a76 18bd
00000380: feba 4bbd 586b 12bc 0945 aebd 5667 443d
00000390: 1957 d93c 4a87 763d 70f4 0ebc d837 aa3d
000003a0: 8da3 063d f2f6 b4bb 1aad 8fbc 2880 153d
000003b0: 1d3c bebb 396d a03d 858f 883b ce67 a0bd
000003c0: 2a9e 06bd 937c 033d 3384 73bd 40bb e6bc
000003d0: db29 afbd 2b6f 083e bda6 50bd 2e56 be3d
000003e0: d5df a1bd 6651 29bd b5b6 a8bc 2077 993d
000003f0: 50ab 2dbd 3740 053d a6ad a63d a73d 39bc

lin1.bias f4 [256]
0.022742748 0.040207405 -0.0026149342 -0.0021174406 -0.03233986 0.0036765665 -0.018971918 -0.03200996
-0.030772153 0.018966593 -0.004441957 0.0010442585 -0.030429795 0.0024136524 0.014642255 -0.018760482
0.034922305 -0.031743087 -0.024619557 -0.007780298 0.006635 0.01816703 0.0020651517 0.002128469
-0.030680317 0.015876826 -0.010146885 0.014846488 -0.03096001 -0.039595466 -0.012748922 0.029891135
-0.042882096 -0.016789159 0.00957517 -0.015550379 -0.0065608607 -0.015278143 -0.004745827 -0.042097207
0.0026523354 -0.008610757 -0.012405811 0.020668851 0.0206884 0.030223573 -0.010016732 -0.0073071322
0.008185466 0.01025436 -0.034516856 -0.026912786 0.027661683 0.007305044 -0.0053628595 0.004843535
-0.03051983 0.03179388 -0.018422816 -0.02123146 -0.0028628474 0.01844653 -0.034304567 0.032351196
-0.0024565938 -0.009560986 0.004603712 0.0012787309 0.029721625 0.03832568 -0.010078986 -0.014666842
-0.030389007 0.0053200545 0.003952808 -0.011630601 0.034304183 -0.044094957 0.020405238 -0.0010201026
-0.03666975 0.030230181 -0.023785906 -0.024657233 -0.0042415923 -0.004265564 0.025772836 -0.008158205
0.009149031 -0.017674621 0.00088731904 6.7318683e-06 0.012483957 0.020179914 -0.021063903 -0.0021702852
-0.025797207 -0.012630399 -0.016035 -0.0063930685 -0.018328235 0.008021636 -0.037715677 0.04523887
-0.02431692 -0.01665331 -0.052151453 0.030832743 -0.03191644 0.0017954545 -0.02797189 0.02551307
-0.029067047 -0.0017566925 -0.00711741 -0.03867529 0.018539533 0.02524267 0.0030004112 0.024111237
-0.028016502 0.024235694 -0.0173545 -0.04195306 -0.025607625 -0.01765646 -0.044196367 -0.005101852
0.010029134 0.00029800515 -0.031162305 -0.020721922 -0.03540444 -0.030202862 0.0065215873 -0.0003376818
-0.015051036 -0.035269212 0.0027077568 0.02356399 -0.020423722 -0.018308435 -0.0127381245 -0.018310003
0.010121441 -0.02799058 0.020617211 0.020826804 0.012537409 -0.029343057 0.00985342 -0.023584154
0.034061313 0.018637497 0.02094086 0.004481768 0.036115076 -0.023959134 -0.0060931034 0.031794004
0.016728213 0.019761693 0.03557147 -0.022179807 -0.05353708 0.017359383 -0.00984166 -0.02002723
-0.017735763 0.0033185943 -0.020092778 -0.0150476415 0.033918377 -0.023365725 -0.0019018244 0.013388265
-0.022573942 0.0041031083 -0.008835094 -0.032013096 0.0035626239 -0.029696876 -0.018158853 -0.031040667
0.010983463 -0.02986871 -1.94081e-05 -0.0068737534 -0.0052748974 0.042345718 0.006092462 -0.03564624
-0.0052271294 0.002654882 -0.032566927 -0.02832535 -0.019129558 0.0024327913 -0.01715806 0.023246747
-0.017146425 -0.02169023 0.000560871 -0.024646567 0.010364538 0.022409057 -0.024794271 -0.03555025
-0.035933863 -0.007539475 -0.02690074 -0.0055456962 0.029499078 0.015672743 -0.005063972 -0.01827212
-0.04053989 -0.03536628 -0.024040828 -0.0026652457 0.025000019 0.008862988 -0.0032677688 -0.05059199
0.034308106 -0.0024897351 -0.008606534 0.006965283 0.014902016 0.0016965629 -0.021474775 -0.0023813217
-0.00560304 0.020936014 0.0024075462 0.038051024 0.0230038 -0.025818838 -0.050825216 0.004779129
-0.004462543 0.017603064 0.018180862 0.014131049 -0.010248921 -0.0039912225 -0.039871555 0.022167815
-0.0247588 0.02529382 -0.017035428 0.033828486 -0.019177277 -0.015928883 0.020656105 0.0050486596
00000000: 004f ba3c 85b0 243d 515f 2bbb c2c4 0abb
00000010: cd76 04bd 8df2 703b ff6a 9bbc e01c 03bd
00000020: e215 fcbc d45f 9b3c d68d 91bb 80df 883a
00000030: e847 f9bc 5e2e 1e3b 12e6 6f3c 95af 99bc
00000040: b10a 0f3d 0a05 02bd f4ae c9bc dff1 febb
00000050: 6a6a d93b 06d3 943c 7f57 073b c97d 0b3b
00000060: 4a55 fbbc 1e10 823c 1f3f 26bc af3e 733c
00000070: d99f fdbc db2e 22bd dbe0 50bc 41de f43c
00000080: 23a5 2fbd 6b89 89bc 2de1 1c3c 04c7 7ebc
00000090: 7dfc d6bb 2d51 7abc e282 9bbb 1f6e 2cbd
000000a0: ced2 2d3b 2214 0dbc be41 4bbc b951 a93c
000000b0: b87a a93c 6d97 f73c 381d 24bc ab70 efbb
000000c0: 551c 063c e701 283c 8c61 0dbd 3478 dcbc
000000d0: c19a e23c 275f ef3b edba afbb 84b6 9e3b
000000e0: b904 fabc 4d3a 023d 72eb 96bc 99ed adbc
000000f0: 9c9e 3bbb 2d1d 973c f282 0cbd b082 043d
00000100: cefe 20bb afa5 1cbc bcda 963b 179b a73a
00000110: c47a f33c 63fb 1c3d 5522 25bc 324d 70bc
00000120: 5ef2 f8bc da53 ae3b 8f86 813b 478e 3ebc
00000130: 8b82 0c3d ea9c 34bd e328 a73c f7b4 85ba
00000140: 0533 16bd 49a5 f73c a9da c2bc f7fd c9bc
00000150: 0efd 8abb 25c6 8bbb 8e21 d33c fea9 05bc
00000160: d1e5 153c 5eca 90bc f99a 683a 4fe2 e136
00000170: 8389 4c3c 5950 a53c 358e acbc 583b 0ebb
00000180: aa54 d3bc bcef 4ebc d55b 83bc f27c d1bb
00000190: 1825 96bc 2e6d 033c c17b 1abd 654c 393d
000001a0: 4734 c7bc 866c 88bc c39c 55bd f394 fc3c
000001b0: d0ba 02bd 7555 eb3a 4e25 e5bc c900 d13c
000001c0: 041e eebc d240 e6ba 2a39 e9bb fb69 1ebd
000001d0: 38e0 973c b7c9 ce3c 8ca2 443b ee84 c53c
000001e0: dd82 e5bc ef89 c63c 062b 8ebc f9d6 2bbd
000001f0: 15c7 d1bc 48a4 90bc 4007 35bd 702d a7bb
00000200: 3d51 243c 933d 9c39 1748 ffbc 05c1 a9bc
00000210: 3f04 11bd fe6b f7bc 0ab3 d53b e20a b1b9
00000220: 9f98 76bc 7376 10bd 9f74 313b 4509 c13c
00000230: a64f a7bc 92fb 95bc 91b3 50bc dcfe 95bc
00000240: 67d4 253c 804c e5bc 6de5 a83c f99c aa3c
00000250: b469 4d3c da60 f0bc 3d70 213c 8e33 c1bc
00000260: e083 0b3d aaad 983c 2b8c ab3c cbdb 923b
00000270: 67ed 133d f245 c4bc a8a8 c7bb 6e3a 023d
00000280: 9b09 893c 46e3 a13c 64b3 113d 6db2 b5bc
00000290: b249 5bbd 4435 8e3c ea3e 21bc 2510 a4bc
000002a0: 974a 91bc c67c 593b 9c99 a4bc 628a 76bc
000002b0: ffed 0a3d 7a69 bfbc a346 f9ba 745a 5b3c
000002c0: fdec b8bc 5e73 863b 12c1 10bc 2a20 03bd
000002d0: e97a 693b dd46 f3bc e0c1 94bc ff48 febc
000002e0: fcf3 333c 3aaf f4bc 94ce a2b7 393d e1bb
000002f0: 0cd9 acbb b472 2d3d 47a3 c73b cb01 12bd
00000300: 5748 abbb 87fd 2d3b e664 05bd 900a e8bc
00000310: 97b5 9cbc 776f 1f3b 0f8f 8cbc f66f be3c
00000320: a976 8cbc b6af b1bc 6a07 133a 99e7 c9bc
00000330: 06d0 293c 3393 b73c 5b1d cbbc 249d 11bd
00000340: 632f 13bd b30d f7bb f15e dcbc acb8 b5bb
00000350: 0da8 f13c 2064 803c adef a5bb 6aaf 95bc
00000360: 280d 26bd 3bdc 10bd 45f1 c4bc 67ab 2ebb
00000370: d7cc cc3c 1136 113c 1028 56bb 8c39 4fbd
00000380: a886 0c3d d32a 23bb 6c02 0dbc 073d e43b
00000390: 9627 743c 345f de3a deeb afbc f30f 1cbb
000003a0: b599 b7bb 0182 ab3c ecc7 1d3b 64db 1b3d
000003b0: 7772 bc3c 0782 d3bc 1a2e 50bd 3d9a 9c3b
000003c0: 863a 92bb 4d34 903c 08f0 943c ea85 673c
000003d0: 17eb 27bc cdc8 82bb 5b50 23bd 4799 b53c
000003e0: f8d2 cabc fc34 cf3c e28d 8bbc bd8f 0a3d
000003f0: aa19 9dbc 4a7d 82bc fe36 a93c 3a6f a53b

lin2.weight f4 [128, 256]
-0.061240222 -0.06345447 0.08569723 -0.03471153 -0.022533664 0.15968584 -0.007922884 0.013994154
-0.07633656 -0.13599442 0.096071504 0.20626675 -0.00224669 0.0061065755 0.028082715 0.020626985
-0.032080665 0.038264684 0.03299867 0.1465418 0.0043276446 0.15968692 -0.035257857 0.04451397
-0.05540921 -0.039855856 0.03437333 -0.07529905 0.10506657 0.028640794 -0.13928542 0.0674161
0.10726031 0.13600218 0.037067525 0.08440224 0.121683724 0.031175086 -0.13639104 0.003279219
-0.058455523 -0.06924224 0.013851594 0.11995499 -0.077340424 0.13929488 0.26412502 -0.10097217
0.003976098 -0.07370164 -0.08560618 0.12939097 0.06327883 0.0598243 0.1165766 0.04149128
-0.081267074 -0.018845156 0.031172227 0.06559814 0.12071562 -0.06564329 -0.041277017 0.084114075
0.06253635 -0.045277525 -0.080849566 0.040417384 -0.12109314 -0.03629873 0.06407188 0.04082934
-0.14105453 -0.1783501 0.050943524 -0.0046657505 0.05584375 0.1561591 0.046859115 -0.03679157
0.091850154 -0.10779252 0.03295318 -0.02160562 -0.06945237 0.046444483 0.016802046 -0.029037597
-0.048783824 0.033246648 0.016776018 0.098738246 0.031722486 -0.18573765 -0.01965824 0.023356233
-0.063433625 0.036058277 -0.048071504 -0.046359926 -0.04942394 0.07885681 -0.05364119 -0.06887722
-0.0026953346 -0.11041432 -0.08627874 0.021617793 -0.0017018283 -0.012610381 0.1953253 0.028783461
0.010006973 -0.07047673 0.0998273 -0.082333416 0.16334961 -0.03986349 -0.018502241 -0.080947675
0.010545534 0.043576855 -0.018614648 0.083073884 0.002381278 -0.07147227 0.11451525 0.0040096557
0.07449797 -0.03957534 0.1465651 0.12654509 0.017309526 -0.052080464 -0.0137259625 -0.005821066
-0.0036907946 -0.036145665 -0.1217036 -0.11816896 0.044197608 0.038149133 -0.12907279 -0.016010331
-0.06239687 -0.044738837 -0.0017195027 -0.11200967 0.10683885 -0.061461307 0.032289464 0.009666645
-0.006588076 0.10487215 0.14564784 -0.12791933 0.09612464 -0.0813891 0.069823734 -0.014919051
0.04662997 -0.017529467 -0.028987367 -0.036237944 0.022173522 0.021535909 -0.023132578 -0.09940926
-0.051054202 -0.04262871 0.35972267 0.08946693 -0.004938928 0.018572759 -0.012823263 -0.0080838995
-0.047939535 0.01593236 0.094993755 -0.05302409 -0.25701937 -0.017877676 0.13026452 0.023590362
0.13638523 -0.027840124 -0.0013302842 0.067888774 0.05292844 -0.0411493 -0.035441756 -0.031362437
-0.03736687 0.036392264 0.17654243 -0.13770558 0.03625362 0.04801622 0.030641943 0.13584334
-0.059297487 0.07311501 -0.102072105 -0.021688826 -0.083303146 0.07148102 -0.04652237 -0.081506364
-0.055343285 0.13094434 -0.041053846 -0.15092096 0.113393076 -0.14124751 0.06795875 -0.04574852
0.081567355 -0.064018235 -0.064879194 0.12966682 -0.0063353917 -0.11889021 -0.037444666 0.08867933
-0.049590755 0.14256604 -0.06328415 0.011740875 -0.03690637 0.048327394 0.0063238908 0.0062041897
0.117399134 -0.058190413 -0.068556786 0.09705366 -0.081592925 -0.05244688 0.01908446 0.056290828
0.046596605 0.020123651 -0.08023051 -0.00027042837 0.10753974 -0.052044246 0.090263106 0.059582498
-0.05586927 0.0053536836 0.052597653 -0.029066717 -0.042518467 -0.06783217 0.05401369 0.0027396628
00000000: 07d7 7abd 6bf4 81bd 0882 af3d ad2d 0ebd
00000010: 8598 b8bc af84 233e fcce 01bc bc47 653c
00000020: 5856 9cbd 1f42 0bbe 23c1 c43d 9737 533e
00000030: 343d 13bb ab19 c83b b90d e63c ecf9 a83c
00000040: 0467 03bd 6ebb 1c3d 9d29 073d 0e0f 163e
00000050: eace 8d3b f884 233e 8b6a 10bd 4854 363d
00000060: c5f4 62bd e53f 23bd 0dcb 0c3d 6336 9abd
00000070: 242d d73d 19a0 ea3c d6a0 0ebe 7411 8a3d
00000080: 4bab db3d 2844 0b3e 1ed4 173d 15db ac3d
00000090: 5135 f93d e562 ff3c 18aa 0bbe 2ae8 563b
000000a0: 0f6f 6fbd e0ce 8dbd ccf1 623c f6aa f53d
000000b0: a864 9ebd 51a3 0e3e 653b 873e 7fca cebd
000000c0: ed49 823b e3f0 96bd 4b52 afbd 117f 043e
000000d0: 5598 813d 530a 753d b6bf ee3d c3f2 293d
000000e0: 5a6f a6bd 2861 9abc e65c ff3c 5158 863d
000000f0: c039 f73d fd6f 86bd 1712 29bd 0044 ac3d
00000100: 0f13 803d ed74 39bd 7594 a5bd b38c 253d
00000110: aeff f7bd faad 14bd 1e38 833d ab3c 273d
00000120: 9970 10be 69a1 36be 28aa 503d 27e3 98bb
00000130: 6abc 643d 2ce8 1f3e 58ef 3f3d c2b2 16bd
00000140: ef1b bc3d 53c2 dcbd eaf9 063d 45fe b0bc
00000150: 0b3d 8ebd 923c 3e3d 72a4 893c 41e0 edbc
00000160: 8cd1 47bd a32d 083d dc6d 893c 4737 ca3d
00000170: 70ef 013d 0332 3ebe 510a a1bc 9255 bf3c
00000180: 7de9 81bd d8b1 133d a0e6 44bd e8e3 3dbd
00000190: c270 4abd ae7f a13d ddb6 5bbd 800f 8dbd
000001a0: 36a4 30bb e720 e2bd e8b2 b0bd cc17 b13c
000001b0: e20f dfba c59b 4ebc 5b03 483e 4bcb eb3c
000001c0: 49f4 233c 1b56 90bd 4172 cc3d 6c9e a8bd
000001d0: 1f45 273e e647 23bd 0392 97bc e5c7 a5bd
000001e0: 2dc7 2c3c a57d 323d bf7d 98bc a422 aa3d
000001f0: 370f 1c3b 0e60 92bd f986 ea3d 6e63 833b
00000200: 6492 983d c019 22bd 2915 163e 0995 013e
00000210: b5cc 8d3c 5352 55bd dce2 60bc a4be bebb
00000220: 42e1 71bb 7a0d 14bd bd3f f9bd 9102 f2bd
00000230: 8d08 353d 4442 1c3d a82b 04be 1928 83bc
00000240: dc93 7fbd 1240 37bd f060 e1ba 5365 e5bd
00000250: 54ce da3d dabe 7bbd f541 043d d960 1e3c
00000260: c9e0 d7bb 36c7 d63d b524 153e 49fd 02be
00000270: ffdc c43d 54af a6bd bfff 8e3d 096f 74bc
00000280: 11ff 3e3d f599 8fbc ea76 edbc 3d6e 14bd
00000290: 3fa5 b53c 136c b03c 8880 bdbc 1597 cbbd
000002a0: 361e 51bd 719b 2ebd 922d b83e 703a b73d
000002b0: bbd6 a1bb e625 983c aa18 52bc 5572 04bc
000002c0: 3f5c 44bd 9584 823c 168c c23d ca2f 59bd
000002d0: 0b98 83be 3474 92bc 1064 053e 9340 c13c
000002e0: 92a8 0b3e f910 e4bc ee5c aeba 4509 8b3d
000002f0: 7ecb 583d 2b8c 28bd 602b 11bd e675 00bd
00000300: 010e 19bd 0e10 153d 8ac7 343e b102 0dbe
00000310: ad7e 143d a8ac 443d d004 fb3c 841a 0b3e
00000320: ece1 72bd 53bd 953d 2e0b d1bd c4ac b1bc
00000330: d79a aabd a464 923d 3e8e 3ebd cfec a6bd
00000340: a4af 62bd 4616 063e 1428 28bd 068b 1abe
00000350: a13a e83d 30a3 10be f52d 8b3d cd62 3bbd
00000360: c90c a73d fe1b 83bd 62df 84bd 61c7 043e
00000370: 1e99 cfbb b67c f3bd 945f 19bd 829d b53d
00000380: ad1f 4bbd d5fc 113e 1f9b 81bd cd5c 403c
00000390: 222b 17bd f2f2 453d a438 cf3b 844c cb3b
000003a0: f56e f03d 1259 6ebd 8067 8cbd 12c4 c63d
000003b0: 311a a7bd 8ad2 56bd 0357 9c3c 3691 663d
000003c0: 15dc 3e3d 5bda a43c e54f a4bd 48c8 8db9
000003d0: cc3d dc3d 592c 55bd dddb b83d c70c 743d
000003e0: 2dd7 64bd f46d af3b a370 573d 531d eebc
000003f0: d827 2ebd 98eb 8abd 763d 5d3d ea8b 333b

lin2.bias f4 [128]
0.020272447 0.06460434 0.13621773 0.018178625 0.07167551 0.09324541 0.044078473 0.053159185
-0.021533303 0.036154382 0.07790764 -0.017819626 0.07863979 0.10127115 0.031789005 0.08387252
0.08100714 0.018595072 0.116045505 0.024593476 0.06880487 0.07526959 0.081932016 0.08205127
0.024609424 0.040842935 0.00612217 0.084610194 0.037895102 0.07629639 0.0146924155 0.099807255
0.02326287 -0.029130964 0.024003522 -0.016683087 0.069813244 -0.013529115 0.065435775 0.11113225
0.020695219 0.011626258 0.06000978 0.00763401 -0.039666455 0.08477024 -0.016173316 0.006679562
0.06862487 0.09079514 0.059958715 0.021502314 0.034299288 0.07408068 0.14948373 0.0050340234
0.016635278 0.057256784 0.06396502 0.069870435 0.10060601 -0.019873837 0.022069842 0.097125195
0.094956644 0.027015015 -0.013287372 0.09504327 -0.034330275 0.0169879 -0.02154886 0.005258321
0.082612604 0.0482106 -0.008152161 0.0915943 0.010579866 0.03543615 0.01181495 0.0015091168
0.029331578 0.050519247 0.028093366 0.023749141 0.00965068 -0.00012612871 0.12307709 0.05014771
0.011062742 0.12019445 0.083268195 0.037252966 0.035881866 0.022221453 0.052880984 0.05711576
-0.046127755 0.07719729 0.007667344 0.17248596 0.0504753 0.061043426 0.08332857 0.032561406
0.08942677 0.003443018 -0.0163884 0.080651306 -0.025835041 0.06979182 0.1398357 -0.008251785
0.01381514 0.013659564 0.040103257 0.1175866 0.10710519 0.05901739 0.02083622 0.010004855
0.08601619 0.015605459 0.06584602 -0.023779202 0.07270136 0.07827272 -0.021046104 0.025183922
00000000: 6712 a63c 484f 843d a97c 0b3e 57eb 943c
00000010: 9cca 923d 73f7 be3d a18b 343d 72bd 593d
00000020: 9c66 b0bc 9e16 143d 0a8e 9f3d 77fa 91bc
00000030: e60d a13d 4067 cf3d 3035 023d 5bc5 ab3d
00000040: 12e7 a53d b154 983c 44a9 ed3d 4278 c93c
00000050: 91e9 8c3d f126 9a3d f9cb a73d 7f0a a83d
00000060: b499 c93c ec4a 273d 7c9c c83b 1c48 ad3d
00000070: e537 1b3d 4841 9c3d 75b8 703c bf67 cc3d
00000080: c691 be3c 0fa4 eebc 09a3 c43c f8aa 88bc
00000090: 3ffa 8e3d 39a9 5dbc 3103 863d 4e99 e33d
000000a0: 0589 a93c 0f7c 3e3c d1cc 753d b826 fa3b
000000b0: 4b79 22bd 059c ad3d e77d 84bc 3ae0 da3b
000000c0: 328b 8c3d cdf2 b93d 4597 753d 9f25 b03c
000000d0: 697d 0c3d 9db7 973d 4312 193e 73f4 a43b
000000e0: b546 883c 1786 6a3d 1800 833d 3b18 8f3d
000000f0: 860a ce3d 75ce a2bc d0cb b43c 93e9 c63d
00000100: a178 c23d 984e dd3c 47b3 59bc 0ca6 c23d
00000110: e79d 0cbd 352a 8b3c 3c87 b0bc fe4d ac3b
00000120: cc30 a93d 7a78 453d a490 05bc cb95 bb3d
00000130: 2d57 2d3c 7f25 113d 7e93 413c 8fcd c53a
00000140: c748 f03c 45ed 4e3d 0f24 e63c 8f8d c23c
00000150: e31d 1e3c 6b41 04b9 d70f fc3d af67 4d3d
00000160: 8140 353c 8228 f63d 8488 aa3d 9196 183d
00000170: ddf8 123d c409 b63c bb99 583d 37f2 693d
00000180: 75f0 3cbd 9d19 9e3d 583e fb3b 29a0 303e
00000190: 30bf 4e3d ac08 7a3d 2ba8 aa3d 1c5f 053d
000001a0: 6225 b73d 42a4 613b f740 86bc 832c a53d
000001b0: 02a4 d3bc 04ef 8e3d 1731 0f3e 7f32 07bc
000001c0: e658 623c 5dcc 5f3c 5043 243d 3ed1 f03d
000001d0: f759 db3d 38bc 713d b8b0 aa3c 67eb 233c
000001e0: 4229 b03d 0aae 7f3c 47da 863d 9acc c2bc
000001f0: 73e4 943d 734d a03d e168 acbc 834e ce3c

pi_lin.weight f4 [36, 128]
0.058226034 0.10923189 0.09354001 -0.39231786 0.10189366 0.106107 0.07351501 0.09142331
0.06757345 0.0212591 0.100189775 -0.040242445 -0.33205342 0.09366953 0.0993071 -0.10968022
-0.7601067 0.0008386811 -0.44563547 -0.617367 -0.012443944 0.07118133 0.03914491 0.052809197
-0.2788678 -0.17949226 -0.61249703 0.08011976 0.07409595 0.060792416 0.07059452 0.0059689265
0.050998267 -0.06351938 0.0025668347 0.008094911 -0.71433544 0.0999723 -0.16302885 0.060590956
-0.45488077 -0.044194497 -0.02054174 0.05172958 0.0826575 0.068145886 0.052637435 0.035283364
0.09365209 0.059713848 0.060790025 0.07241032 0.074404426 0.09180231 0.08154771 0.08451375
0.03709726 0.08696403 -0.09078495 -0.043791294 -0.14797916 0.0810738 0.045332216 0.08275127
0.06816789 -0.014525498 0.02191675 0.043847464 -0.4721851 0.08612659 -0.42635196 -0.46058354
0.045575473 0.12237934 0.047717642 0.11554284 -0.3287573 0.08686668 -0.10442633 0.006378144
-0.021841438 -0.27524933 0.08527931 -0.3024576 0.086226836 0.0689162 0.101580024 0.06257384
-0.21663478 0.11347986 0.029109508 0.013407092 -0.17277925 0.10282998 0.025192821 0.044754907
0.099879354 0.11339613 -0.12900198 0.074502334 0.010012792 0.07638933 0.054111872 -0.56647927
0.07919819 0.10412134 -0.014797993 0.066144966 -0.010261877 0.035275172 -0.4555813 -0.5573985
-0.06978962 0.03815516 0.05889114 0.089352556 0.03341661 0.081035614 -0.095709056 0.083946936
-0.5818575 0.09598302 0.08260502 0.08412146 0.07460717 0.081534125 0.0005576134 -0.043849226
0.0043320563 0.07804495 0.018211145 0.08790557 0.112898715 0.08066236 0.084963225 -0.013643776
0.0475679 0.055119928 -0.11113244 0.0012481812 -0.21294402 -0.020879008 0.096543185 0.12854512
0.0698222 0.009837119 -0.092499495 -0.19528152 0.05288596 -0.042885076 0.030933142 -0.014493592
-0.07994663 0.05642006 0.046099525 0.05434213 0.038129468 0.04279292 -0.118352994 0.05694147
0.07661322 0.009311136 0.08201149 0.031270925 -0.27928713 0.07242355 0.05026815 0.037544884
0.083038904 0.05027391 0.024513312 0.090300806 0.06289017 0.010216148 0.081438005 0.05836845
0.00839348 0.046467107 -0.10732043 0.03729784 0.03450318 -0.13698031 -0.072714314 -0.018801209
0.07728671 0.09186267 0.076965794 9.271584e-05 -0.021437908 0.06554592 0.025649454 0.035259876
-0.08733092 -0.5118211 0.014601394 0.020601606 -0.0774025 -0.4540812 -0.71812266 0.05916809
0.049658973 0.06740601 -0.019995356 -0.07559683 0.08366362 0.05615514 -0.08103592 0.07140956
-0.002516683 0.074358 -0.07170071 0.036639266 -0.5074431 0.08545921 0.0016906584 0.028945291
-0.08386384 0.06185853 0.07959094 0.054486092 0.071619205 0.08871315 0.03073016 -0.6941859
0.08638031 0.091294296 0.08689369 -0.46748197 -0.039357826 0.0460083 0.04880281 0.116234906
0.08659059 0.05518874 -0.4461547 -0.0011034972 0.026943566 0.036843546 0.06739881 0.0686806
0.06319483 0.007512487 0.099591486 0.065390475 -0.0029849566 -0.008567316 -0.042178422 0.024574379
-0.18005091 0.037897203 0.015976036 0.030480538 0.058773663 0.06760902 0.0013096356 0.045700777
00000000: 6c7e 6e3d f8b4 df3d e891 bf3d e3dd c8be
00000010: a0ad d03d a04e d93d 0a8f 963d 253c bb3d
00000020: f363 8a3d 9027 ae3c 4c30 cd3d 43d5 24bd
00000030: e802 aabe cfd5 bf3d 8561 cb3d 06a0 e0bd
00000040: 5a96 42bf f0da 5b3a 552a e4be c40b 1ebf
00000050: afe1 4bbc 84c7 913d 6a56 203d 754e 583d
00000060: c3c7 8ebe d2cc 37be 9bcc 1cbf d415 a43d
00000070: 9ebf 973d 7801 793d dc93 903d fc96 c33b
00000080: 8fe3 503d 7316 82bd 5738 283b 85a0 043c
00000090: b0de 36bf 47be cc3d 09f1 26be 392e 783d
000000a0: 22e6 e8be 4a05 35bd 2747 a8bc 65e2 533d
000000b0: 5648 a93d 1290 8b3d 5a9a 573d 4a85 103d
000000c0: abcc bf3d 8296 743d f6fe 783d dd4b 943d
000000d0: 5961 983d d902 bc3d 7c02 a73d 8c15 ad3d
000000e0: 4cf3 173d 331a b23d 76ed b9bd 805e 33bd
000000f0: d987 17be 050a a63d 46ae 393d 7f79 a93d
00000100: 9b9b 8b3d 5bfc 6dbc c28a b33c 6699 333d
00000110: 3fc2 f1be 2363 b03d ce4a dabe 9bd1 ebbe
00000120: 59ad 3a3d 05a2 fa3d 9373 433d b9a1 ec3d
00000130: e052 a8be 28e7 b13d 79dd d5bd c0ff d03b
00000140: d1ec b2bc 7bed 8cbe eba6 ae3d b9db 9abe
00000150: b297 b03d f023 8d3d 3009 d03d b726 803d
00000160: 82d5 5dbe 2168 e83d 1077 ee3c 6ba9 5b3c
00000170: 0bed 30be 8698 d23d 2d61 ce3c ec50 373d
00000180: 8c8d cc3d 3b3c e83d 1819 04be ae94 983d
00000190: b20c 243c 0272 9c3d 69a4 5d3d c904 11bf
000001a0: a932 a23d 923d d53d 4873 72bc 0377 873d
000001b0: 6f21 28bc b37c 103d f441 e9be abb1 0ebf
000001c0: dced 8ebd 9648 1c3d d637 713d 79fe b63d
000001d0: dbdf 083d 00f6 a53d 1c03 c4bd 5fec ab3d
000001e0: 9df4 14bf bf92 c43d d22c a93d df47 ac3d
000001f0: a5cb 983d 5dfb a63d cd2c 123a 3f9b 33bd
00000200: ecf3 8d3b 08d6 9f3d 8a2f 953c d607 b43d
00000210: 7137 e73d 4f32 a53d 3301 ae3d 258a 5fbc
00000220: 8fd6 423d 6fc5 613d 6899 e3bd 039a a33a
00000230: ff0d 5abe 740a abbc 6fb8 c53d 55a1 033e
00000240: f1fe 8e3d de2b 213c 6070 bdbd e1f7 47be
00000250: f39e 583d 43a8 2fbd 8067 fd3c 8876 6dbc
00000260: 0fbb a3bd b918 673d dbd2 3c3d da95 5e3d
00000270: a52d 1c3d a147 2f3d 0e63 f2bd 753b 693d
00000280: 64e7 9c3d bc8d 183c a4f5 a73d f115 003d
00000290: b9fe 8ebe cc52 943d fae5 4d3d aac8 193d
000002a0: 4d10 aa3d 04ec 4d3d 24d0 c83c a1ef b83d
000002b0: 90cc 803d a161 273c f8c8 a63d c113 6f3d
000002c0: cf84 093c 4b54 3e3d d0ca dbbd 9fc5 183d
000002d0: 3553 0d3d 9144 0cbe 3eeb 94bd fe04 9abc
000002e0: 7f48 9e3d 7f22 bc3d 3ea0 9d3d 7070 c238
000002f0: 8d9e afbc f03c 863d ce1e d23c a96c 103d
00000300: 8eda b2bd b506 03bf af3a 6f3c b3c4 a83c
00000310: 3485 9ebd 557d e8be e3d6 37bf 3d5a 723d
00000320: 3567 4b3d 2a0c 8a3d 4dcd a3bc 83d2 9abd
00000330: d557 ab3d ef02 663d 29f6 a5bd 2d3f 923d
00000340: efee 24bb 0249 983d d2d7 92bd 0e13 163d
00000350: cae7 01bf 3d05 af3d 1599 dd3a ad1e ed3c
00000360: cec0 abbd 5f5f 7d3d 9300 a33d cf2c 5f3d
00000370: 17ad 923d 3daf b53d d1bd fb3c 2bb6 31bf
00000380: 29e8 b03d 81f8 ba3d 52f5 b13d cc59 efbe
00000390: ac35 21bd 3373 3c3d 75e5 473d 910c ee3d
000003a0: 6856 b13d 970d 623d 646e e4be 39a3 90ba
000003b0: c1b8 dc3c 42e9 163d 6308 8a3d 6aa8 8c3d
000003c0: 4b6c 813d 4f2b f63b 9ff6 cb3d 71eb 853d
000003d0: 439f 43bb ee5d 0cbc 48c3 2cbd 3550 c93c
000003e0: 445f 38be 193a 1b3d 2de0 823c 52b2 f93c
000003f0: a7bc 703d 9976 8a3d 14a8 ab3a bd30 3b3d

pi_lin.bias f4 [36]
0.16808219 -0.13763948 0.03759227 0.19901413 -0.05169499 0.23925109 -0.10263426 0.04770897
0.05150341 0.03970274 -0.1287118 -0.12182112 -0.07687614 -0.08285313 -0.16869065 -0.16871369
-0.043227196 0.16162746 0.1343689 0.028609732 -0.1687354 -0.16868997 -0.046795826 -0.0039080414
-0.116342954 -0.1284464 0.073843576 0.019816132 0.11419463 -0.15610188 0.3445425 -0.057113484
0.1892992 -0.077665076 -0.20195976 0.23622356
00000000: bd1d 2c3e 5df1 0cbe 5afa 193d 5cca 4b3e
00000010: 20be 53bd 3dfe 743e e931 d2bd 7b6a 433d
00000020: 3df5 523d 579f 223d 07cd 03be 5a7d f9bd
00000030: 3d71 9dbd e7ae a9bd 3ebd 2cbe 48c3 2cbe
00000040: 000f 31bd ab81 253e 0098 093e f55e ea3c
00000050: f9c8 2cbe 10bd 2cbe fbac 3fbd 070f 80bb
00000060: 3745 eebd 7487 03be 4d3b 973d 7155 a23c
00000070: e0de e93d 2cd9 1fbe e067 b03e d4ef 69bd
00000080: a6d7 413e de0e 9fbd 8ace 4ebe 97e4 713e
