model/Reversi_6_6_ver1.model (torch, 805149 bytes, 21 tensors)

conv1.weight f4 [32, 4, 3, 3]
0	0xbcc75048	-0.024330273
1	0xbdf4363e	-0.119244084
2	0xbc92aba2	-0.017904107
3	0x3d4dc305	0.050234813
4	0x3d3b80fe	0.045777313
5	0x3d44f844	0.048088327
6	0xbd76962e	-0.060201816
7	0xbd14bb51	-0.03631145
8	0xbdf85ef7	-0.12127488
9	0xbdae1a05	-0.085010566
10	0x3d41ab59	0.04728255
11	0xbcfe0681	-0.03100896
12	0x3d8efeb3	0.06982174
13	0xbc69581a	-0.014242196
14	0x3cb633b1	0.022241445
15	0xbd4f948f	-0.050678786
16	0xbdaf14e8	-0.085489094
17	0xbd189921	-0.03725541
18	0xbe3b0116	-0.18262133
19	0xbe1c88bb	-0.15286534
20	0x3cd1166b	0.025523385
21	0xbe46f686	-0.19429979
22	0xbe2f0eae	-0.17095444
23	0x3d791586	0.060811542
24	0xbdbe9cd8	-0.09307259
25	0x3e2a74bb	0.16646092
26	0x3e12afe3	0.14324908
27	0xbe58b076	-0.21161065
28	0x3e43fffe	0.19140622
29	0xbdb2ae3e	-0.0872464
30	0xbd030399	-0.031985853
31	0x3dd4622d	0.10370288
32	0xbd5a5c34	-0.053310588
33	0xbdbbb920	-0.09166169
34	0xbd8b3acb	-0.06798323
35	0x3d893ed0	0.06701434
36	0xbd3b387e	-0.045708172
37	0xbdca81ec	-0.09888062
38	0x3da6d1f0	0.08145511
39	0xbd0bc144	-0.03411986
40	0xbe375d7f	-0.1790676
41	0x3d01f312	0.03172595
42	0x3d0327fb	0.03202055
43	0x3da4721f	0.08029579
44	0x3d074893	0.033028197
45	0xbdedda9a	-0.116139606
46	0xbdb37694	-0.08762851
47	0x3d85ddc9	0.06536443
48	0xbda578fd	-0.08079717
49	0xbbdb4214	-0.0066912267
50	0xbb64353d	-0.0034821772
51	0xbcb90e70	-0.022589892
52	0xbcbd8d1a	-0.023138572
53	0xbc400263	-0.011719319
54	0xbd9b2775	-0.07575885
55	0xbe2450f1	-0.16046502
56	0x3dc0578e	0.093917
57	0x3e63f272	0.22260454
58	0xbb465099	-0.0030260442
59	0xbd8430e3	-0.06454637
60	0xbdbcb449	-0.09214074
61	0xbd9fdcd7	-0.07805794
62	0xbd8fc130	-0.070192695
63	0x3da0a4f3	0.078439616
64	0x3e6eca92	0.23319462
65	0x3bee614a	0.0072747814
66	0xbd9cc7e4	-0.076553136
67	0xbc32bc64	-0.010909174
68	0xbdc49760	-0.09599185
69	0xbc647dd1	-0.013946013
70	0x3d84aa50	0.06477797
71	0x3d3dce83	0.046339523
72	0xbdc76550	-0.09736121
73	0x3c0d4ec4	0.008624736
74	0x3c9020c6	0.017593753
75	0xbd8aa543	-0.067698024
76	0xbdceba68	-0.10094148
77	0x3e2c2e24	0.16814476
78	0x3d242e35	0.04008313
79	0xbd911eeb	-0.07085975
80	0x3ca7523d	0.020424956
81	0xbdd38280	-0.10327625
82	0x3c305f4f	0.010764911
83	0xbdab231b	-0.08356305
84	0x3df97a1a	0.12181492
85	0xbcc34127	-0.023834778
86	0x3d4400d7	0.047852363
87	0xbcc083e7	-0.023500396
88	0xbe3bac0a	-0.18327346
89	0xbcaada6e	-0.020856109
90	0x3e508d13	0.20366316
91	0x3d5f87d7	0.054572906
92	0xbd085096	-0.033279978
93	0x3dde60b4	0.108582884
94	0xbd7db6e4	-0.061941996
95	0x3d863019	0.06552143
96	0xbd286597	-0.04111251
97	0xbe06c5c7	-0.13161384
98	0xbd16043b	-0.03662513
99	0x3e212f03	0.1574059
100	0x3d7f781e	0.062370412
101	0x3c91b51f	0.01778656
102	0x3d13ff0c	0.036131904
103	0x3e5a2c3f	0.21305941
104	0xbb2c6890	-0.0026307441
105	0x3d571586	0.05251076
106	0x3dcf463c	0.10120818
107	0xbd356625	-0.044286866
108	0x3c965b03	0.018353945
109	0xbcf241bd	-0.029572362
110	0xbb05b1f6	-0.0020400262
111	0xbdfaff5a	-0.12255736
112	0x3d62999e	0.055322282
113	0xbd5a6a8d	-0.05332427
114	0x3cfccac0	0.030858397
115	0xbc8abe7c	-0.016936533
116	0xbd307158	-0.043076843
117	0xbced0a91	-0.028935703
118	0x3d9bcc65	0.076073445
119	0x3e0be90b	0.13663118
120	0xbdb6a4f6	-0.089181826
121	0xbafdd78d	-0.0019366607
122	0xbda77b92	-0.08177866
123	0x3e0fed0c	0.1405527
124	0x3c091230	0.008366153
125	0x3d099782	0.033591755
126	0xbd6e39ee	-0.058160715
127	0x3e4b6d75	0.19865973
128	0xbdea1cfe	-0.11431311
129	0x3e923afd	0.2856063
130	0x3ce7adcb	0.028281113
131	0x3e39236a	0.18079916
132	0xbdac0bb7	-0.08400672
133	0x3e4487bc	0.19192404
134	0xbd591676	-0.052999936
135	0x3e5aec5b	0.21379225
136	0x3b934c80	0.0044952035
137	0x3d5f9a2a	0.05459038
138	0x3db856c2	0.09000923
139	0xbd41beda	-0.04730115
140	0x3da9aebb	0.0828528
141	0xbcf30aba	-0.0296682
142	0xbd33f154	-0.04393132
143	0xbcde86bc	-0.027163856
144	0x3da8ed2d	0.08248363
145	0x3d5d0bad	0.053966213
146	0xbd77c562	-0.060490973
147	0x3dd8e560	0.10590625
148	0x3db3be33	0.08776512
149	0xbd04766a	-0.03233949
150	0x3e016e77	0.12639795
151	0x3e27e9b1	0.1639774
152	0x3c3abb05	0.011397128
153	0xbd0b9494	-0.034077242
154	0xbd0cc802	-0.03437043
155	0xbe08abb0	-0.13346744
156	0xbd3c9e19	-0.04604921
157	0x3ebb1da6	0.36546057
158	0xbdcc7bd9	-0.099845596
159	0x3e5177e4	0.20455891
160	0x3d6984b0	0.057011306
161	0x3cb82d03	0.0224824
162	0x3d038120	0.032105565
163	0x3c2cf7cd	0.010557127
164	0xbd2d9e76	-0.04238745
165	0xbd0b872d	-0.03406446
166	0xbda7326c	-0.08163914
167	0x3ca817a2	0.020519082
168	0x3c713a6a	0.0147234
169	0x3ca59519	0.020212697
170	0x3d0897a2	0.033347733
171	0x3ca26499	0.01982336
172	0x3bbc8015	0.0057525733
173	0xba9edbca	-0.0012119946
174	0xbc40b700	-0.011762381
175	0xbda75880	-0.08171177
176	0xbc704816	-0.014665624
177	0x3a032a4c	0.0005003556
178	0xbc1256df	-0.0089318445
179	0x3b43650a	0.0029814863
180	0x3e86f7e1	0.26360992
181	0x3de3d208	0.11124045
182	0xbc5f5a62	-0.013632389
183	0x3d491d07	0.04909995
184	0x3ae6e602	0.0017616155
185	0xbdeb2649	-0.11481912
186	0x3be820cb	0.0070839874
187	0xbd963242	-0.07333805
188	0x3d814874	0.063126475
189	0x3e49b7f5	0.1969908
190	0xbd89c694	-0.06727329
191	0xbcb22e6a	-0.021750648
192	0x3e484270	0.19556594
193	0xbd8dd306	-0.06925015
194	0xbdb526f2	-0.08845319
195	0xbce622f7	-0.028092844
196	0x3d592c4f	0.05302077
197	0x3d337f9d	0.043822873
198	0xbe7ccd64	-0.24687725
199	0xbd60e75b	-0.054908138
200	0x3cca6ee0	0.024711072
201	0x3dd5304d	0.10409603
202	0xbce01fb0	-0.02735886
203	0xbdd3b0bd	-0.103364445
204	0xbdcef8f5	-0.101060785
205	0x3e0a8f95	0.13531335
206	0xbcb4ad92	-0.022055421
207	0xbc3056e2	-0.010762902
208	0xbdf7c49d	-0.12098048
209	0x3d736e06	0.0594311
210	0xbdde0dd4	-0.10842481
211	0xb9d621e8	-0.00040842523
212	0xbd7d5d98	-0.061856836
213	0xbc8600b9	-0.016357766
214	0x3cc38bab	0.02387031
215	0x3dea518b	0.11441334
216	0xbdd6fd3f	-0.104975216
217	0x3d8c801f	0.06860375
218	0xbd37675f	-0.044776317
219	0xbd1ebb4e	-0.038752846
220	0xbd89ea67	-0.06734162
221	0x3da91519	0.08255977
222	0x3c87eee7	0.01659341
223	0xba49a3ea	-0.00076919666
224	0xbe1571cc	-0.14594191
225	0xbdbf31d5	-0.093356766
226	0x3de8b088	0.11361796
227	0xbce3a017	-0.027786298
228	0x3d5214ed	0.051289488
229	0x39f95a2c	0.00047560164
230	0xbd9bdecb	-0.07610854
231	0x3d2e8821	0.04261029
232	0xbd5c13b1	-0.053729717
233	0xbe150b5f	-0.14555119
234	0xbdd4b0a3	-0.10385253
235	0xbdb3575e	-0.08756898
236	0x3d75fa33	0.06005306
237	0x3e16dd78	0.14732921
238	0x3ea1cda5	0.31602207
239	0xbda56c2e	-0.08077274
240	0x3ca4bd6b	0.020109853
241	0x3e6926e6	0.22768745
242	0x3df9abe2	0.12190987
243	0x3e042092	0.1290305
244	0xbd07950a	-0.03310112
245	0x3d8aa260	0.06769252
246	0xbd4b6ea5	-0.049666066
247	0x3c691af1	0.014227615
248	0x3decc781	0.1156149
249	0xbd0ebe18	-0.034849256
250	0x3da2a5cc	0.079417795
251	0x3e09d1c2	0.13458923
252	0xbd2c96bd	-0.042135943
253	0xbd01273e	-0.031531565
254	0xbcbc3879	-0.022976147
255	0x3d572f63	0.052535426

conv1.bias f4 [32]
0	0x39338b89	0.00017122751
1	0x37420170	1.1563636e-05
2	0xb6b84e9f	-5.49278e-06
3	0x38b409be	8.5848835e-05
4	0xb809088a	-3.2671298e-05
5	0x371beb93	9.293569e-06
6	0x37b54d29	2.1612812e-05
7	0x37e48dbd	2.724572e-05
8	0xb7013f38	-7.703718e-06
9	0xb754ac6c	-1.267633e-05
10	0x3835936b	4.3291056e-05
11	0x37927e20	1.7463288e-05
12	0xb7a94439	-2.0178139e-05
13	0xb7af8845	-2.0925081e-05
14	0x37e58e68	2.736524e-05
15	0x37f25757	2.8889319e-05
16	0xb8a790d5	-7.9901576e-05
17	0x380243c3	3.1057523e-05
18	0xb6e6838d	-6.8698487e-06
19	0x3846c5d0	4.7391106e-05
20	0x379070c5	1.721865e-05
21	0xb2efc7df	-2.7914153e-08
22	0x3881d2bd	6.1904524e-05
23	0xb7ab74ab	-2.0439116e-05
24	0x37d5e04c	2.5496025e-05
25	0xb607963b	-2.0204013e-06
26	0xb8642e82	-5.440275e-05
27	0x37d5e5b1	2.5498537e-05
28	0xb779b956	-1.4884708e-05
29	0x36393b35	2.7601611e-06
30	0x351bcec6	5.8042895e-07
31	0x37316c17	1.0575189e-05

conv2.weight f4 [16, 32, 3, 3]
0	0x3cea2483	0.028581863
1	0xbd211e6e	-0.03933566
2	0x3d6b058c	0.057378337
3	0x3d12fdad	0.035886455
4	0xbb93eed0	-0.0045145527
5	0x3c47c5a4	0.012193117
6	0x3d162fff	0.036666866
7	0xbc82de30	-0.015975088
8	0xbda72c4b	-0.08162745
9	0x3c2a90da	0.010410512
10	0x3d275d15	0.040860254
11	0xbcbe5bca	-0.023237128
12	0x3d097817	0.033561792
13	0x3caf6f00	0.021415234
14	0xbd11e453	-0.035618138
15	0xbd76116d	-0.060075212
16	0xbd04ba3e	-0.032404177
17	0x3c78a51b	0.015176083
18	0x3d0b1e04	0.033964172
19	0x3c17734b	0.009243797
20	0xbdd296c1	-0.1028266
21	0x3bc0006f	0.0058594267
22	0xbdcd9535	-0.100382246
23	0x39ab2e05	0.0003264995
24	0x3d28cbf9	0.04121015
25	0x3cb9f17a	0.022698153
26	0xbd7e7539	-0.06212351
27	0xbbac53cb	-0.0052590123
28	0x3da55983	0.08073714
29	0x392e9d6f	0.00016652582
30	0x3d1746f0	0.036932886
31	0x3c700f29	0.014652052
32	0x3d620d69	0.05518857
33	0x3cec4f70	0.028846473
34	0x3cbc8448	0.023012295
35	0xbd0758bc	-0.033043608
36	0xbce52bc1	-0.027974965
37	0xbb9ddabc	-0.004817335
38	0x3dc1f53c	0.09470603
39	0xba59345c	-0.0008285695
40	0x3caac5c2	0.020846251
41	0x3dc3d600	0.09562302
42	0xbdaf3e34	-0.08556786
43	0xbcef9d65	-0.029249856
44	0xbcacab8c	-0.021077894
45	0x3d2a0f03	0.041518223
46	0x3d89317b	0.06698891
47	0xbdb64a15	-0.08900849
48	0xbd2f7159	-0.042832706
49	0xbddfcd78	-0.10927862
50	0xbc096630	-0.00838618
51	0xbba2b8c7	-0.004965875
52	0xbbf77b68	-0.007552553
53	0x3c95187e	0.018200155
54	0xbdb27563	-0.08713796
55	0x3cd74852	0.026279602
56	0xba9e932a	-0.0012098302
57	0x3d673f80	0.056457043
58	0xbc0c17d5	-0.008550604
59	0xbda4c5fe	-0.080455765
60	0x3b08bc45	0.002086417
61	0xbda3584f	-0.07975828
62	0x3d7525cb	0.059850495
63	0x3bf399c5	0.0074341022
64	0x3d3fbbbe	0.046809904
65	0x3d778c3c	0.060436472
66	0x3d45ef25	0.04832377
67	0xbdea16a8	-0.114301026
68	0x3c91d5d8	0.017802164
69	0xbc972056	-0.018448036
70	0xbbda2553	-0.0066572814
71	0x3d319c64	0.043362036
72	0xbd2d4018	-0.042297453
73	0x3bf85788	0.007578794
74	0xbc691bb8	-0.0142278
75	0x3d1d29c0	0.038369894
76	0xbd251781	-0.04030562
77	0xbd7e5616	-0.062093817
78	0xbc3e46bc	-0.011613544
79	0xbb866733	-0.004101658
80	0xbd48f3d0	-0.049060643
81	0x3b231bf9	0.00248885
82	0x3d8c41d0	0.0684849
83	0x3b4bf1fd	0.0031119578
84	0x3cbeb8c8	0.02328147
85	0xbba12359	-0.004917544
86	0x3cad26de	0.021136697
87	0xbca1cc39	-0.019750701
88	0xbcc94f16	-0.024573844
89	0xbe09555a	-0.13411465
90	0xbc302ce5	-0.010752891
91	0x3c85ff1f	0.016357003
92	0x3cbb2cd2	0.02284852
93	0xbd5db13b	-0.0541241
94	0x3da063cc	0.07831535
95	0x3dc2496d	0.09486661
96	0xbca2b8b1	-0.019863458
97	0x3cb2811f	0.021790085
98	0x3e264df1	0.1624067
99	0x3d222ee9	0.03959552
100	0xbcc9a8a4	-0.024616547
101	0xbc9ae159	-0.018906282
102	0x3d8f344f	0.06992399
103	0x3da87615	0.08225647
104	0x3c5510f9	0.013004535
105	0x3cf1839e	0.029481705
106	0x3c34bfec	0.011032086
107	0x3bfd08ec	0.007722011
108	0xbd2756cd	-0.040854264
109	0x3dc47c24	0.095939904
110	0x3c1019fc	0.008795258
111	0xbd1653a5	-0.036700863
112	0x3d1fd188	0.039018184
113	0xba978093	-0.0011558704
114	0x3d761068	0.06007424
115	0xbc3f7d1c	-0.011687543
116	0xbe01333e	-0.12617204
117	0xbbf3bcf1	-0.007438295
118	0x3d35458f	0.04425579
119	0x3c59571f	0.0132654
120	0xbba2b23b	-0.0049650944
121	0xbdd6e57c	-0.104929894
122	0x3de7f69c	0.11326334
123	0xbd0270e7	-0.031845953
124	0x3d82e306	0.063909575
125	0x3d7f5f99	0.06234703
126	0x3cfa972b	0.03058966
127	0xbd64471a	-0.05573187
128	0xbbd1293f	-0.0063830907
129	0x3cfcbb2b	0.030850967
130	0xbca7f117	-0.020500703
131	0x3bd57b43	0.006514938
132	0xbd9c1ef2	-0.0762309
133	0xba750365	-0.0009346514
134	0x3dae4910	0.08510029
135	0x3d1b60c2	0.037934072
136	0xbcacbe69	-0.021086888
137	0xbc83e4da	-0.016100336
138	0xbd7be1fd	-0.061494816
139	0x3df3042c	0.1186603
140	0x3cb8471d	0.022494847
141	0x3d80971e	0.06278823
142	0x3cf5db75	0.030011872
143	0xbdc7028f	-0.09717285
144	0x3d8de7bd	0.06928966
145	0xba7a5eb3	-0.00095508544
146	0xbce9bd79	-0.02853273
147	0x3ca9cae9	0.020726638
148	0xbd2c6e90	-0.042097628
149	0x3c88698a	0.016651887
150	0x3c763904	0.015028242
151	0xbd116ebe	-0.035506003
152	0x3d8733e0	0.06601691
153	0xbcc3fba8	-0.02392371
154	0xbdff993c	-0.12480399
155	0xbd34e9e9	-0.044168387
156	0xbc2e9ce6	-0.010657525
157	0xbd6f86d3	-0.058478188
158	0xbd853cd4	-0.06505743
159	0x3d40d460	0.047077537
160	0x3dac51b8	0.08414024
161	0xbd87a0c4	-0.066224605
162	0xbcba947c	-0.022775881
163	0xbc4f9acb	-0.012671183
164	0x3ca7bd34	0.020475961
165	0x3d43eead	0.04783504
166	0x3cbaf449	0.022821562
167	0xbd56c20f	-0.052431162
168	0x3cab4097	0.020904822
169	0x3b3f0517	0.002914732
170	0xbbede508	-0.0072599687
171	0xbdbf410f	-0.09338581
172	0xbd400104	-0.04687597
173	0x3c96200a	0.018325824
174	0xbd5fa228	-0.054598004
175	0x3d3cf683	0.04613353
176	0x3d3f1cd0	0.046658337
177	0xbd82900b	-0.0637513
178	0xbb17a422	-0.0023138602
179	0xbd414d4d	-0.04719286
180	0xbd782280	-0.060579777
181	0x3d8235db	0.06357928
182	0xbd13707b	-0.03599594
183	0xbc1d1ba0	-0.009589106
184	0x3d928f92	0.0715629
185	0xbdd47453	-0.103737496
186	0xbd8522ce	-0.06500779
187	0x3d307404	0.04307939
188	0x3d0d31de	0.034471385
189	0x3d121775	0.0356669
190	0xbcfd0b38	-0.030889139
191	0x3d1dd399	0.038531873
192	0x3d8f0244	0.06982854
193	0xbd85dcc5	-0.06536249
194	0xbdae8d34	-0.08523026
195	0x3cd12a10	0.025532752
196	0xbd73f5e9	-0.05956069
197	0x3cb00d07	0.021490587
198	0x3cf32b6a	0.029683787
199	0x3d4328e2	0.04764641
200	0x3d27f3d7	0.04100403
201	0xbd24ec61	-0.04026449
202	0x3c80ed08	0.015738025
203	0xbd423400	-0.047412872
204	0xbc681311	-0.014164702
205	0xbd1e9b3b	-0.038722258
206	0x3d17c075	0.037048776
207	0xbc992844	-0.018695958
208	0xbd5bbb22	-0.05364526
209	0xbc1ad957	-0.009451232
210	0xbd42d25b	-0.04756389
211	0x3c862630	0.016375631
212	0x3db7d782	0.08976652
213	0xbcfaa3b5	-0.03059564
214	0x3b448133	0.0029984235
215	0xbc99faba	-0.018796314
216	0x3dafce60	0.08584285
217	0x3c99e9d4	0.018788256
218	0xbcfd89be	-0.03094947
219	0x3d8efedb	0.069822036
220	0x3c87eff0	0.016593903
221	0x3b0c2d20	0.0021389201
222	0x3cbc3244	0.022973187
223	0xbd3783a5	-0.04480328
224	0x3c84533b	0.016152969
225	0x3c953469	0.018213468
226	0xbdf8ac9a	-0.12142296
227	0xbdb1a5fb	-0.086742364
228	0xbdb3c670	-0.08778083
229	0x3bd7cdfe	0.0065858355
230	0x3ba08e0c	0.004899746
231	0x3d9a7b1c	0.075430125
232	0xbd04f7b4	-0.03246279
233	0xbc4c47d5	-0.012468298
234	0xbd23412f	-0.039857086
235	0x3e01a2e7	0.12659799
236	0x3e01c5d0	0.12673116
237	0xbd9c501f	-0.076324694
238	0xbe09cb60	-0.13456488
239	0xbb2aa19e	-0.0026036273
240	0xbc914862	-0.01773471
241	0x3dacba1c	0.08433935
242	0x3da4bb5a	0.08043547
243	0x3cf82e1a	0.03029542
244	0xbd165303	-0.03670026
245	0x3c9d1e23	0.01917941
246	0xbd302d6f	-0.04301208
247	0x3d8620d9	0.06549234
248	0xbaab974d	-0.0013091356
249	0xbd8a7d48	-0.06762177
250	0xbce9c0f8	-0.028534397
251	0x3cc42aa7	0.02394612
252	0xbd935fde	-0.071960196
253	0x3d173ca7	0.036923077
254	0x3caf7911	0.021420034
255	0xbca4dee0	-0.020125806

conv2.bias f4 [16]
0	0xb81e36b6	-3.772109e-05
1	0xb78ab8eb	-1.6536991e-05
2	0x37a2d54b	1.9411227e-05
3	0x36faedb8	7.4782547e-06
4	0xb5f4d017	-1.8239979e-06
5	0xb7f94192	-2.9713647e-05
6	0xb6841598	-3.9364204e-06
7	0xb82b96b0	-4.0909916e-05
8	0xb7f960bd	-2.972816e-05
9	0x37ecba6d	2.8220204e-05
10	0x38193538	3.6527606e-05
11	0xb8873569	-6.44725e-05
12	0x37114f3e	8.6611235e-06
13	0xb6648a1c	-3.4055038e-06
14	0x370b5dc4	8.306877e-06
15	0x3705d470	7.97688e-06

bn1.weight f4 [32]
0	0x3f82c8b7	1.0217503
1	0x3f6b1ee0	0.91843987
2	0x3f73dcc8	0.9525876
3	0x3f7856e2	0.9700757
4	0x3f8de7de	1.1086385
5	0x3f83de2b	1.0302175
6	0x3f80be89	1.0058147
7	0x3f800dae	1.0004175
8	0x3f7c7e65	0.9863036
9	0x3f6c7d82	0.9237901
10	0x3f6ada03	0.9173891
11	0x3f64e3a4	0.8940985
12	0x3f72ac8c	0.94794536
13	0x3f80bb5e	1.005718
14	0x3f7888e3	0.9708387
15	0x3f77bf5b	0.9677636
16	0x3f7ce5df	0.98788255
17	0x3f7a8d6e	0.97872055
18	0x3f793262	0.97342503
19	0x3f78a002	0.9711915
20	0x3f798e37	0.9748263
21	0x3f717a19	0.9432693
22	0x3f7a7599	0.9783569
23	0x3f7f8bf7	0.99822944
24	0x3f75bea6	0.9599403
25	0x3f7ae550	0.98006153
26	0x3f8ea049	1.1142665
27	0x3f704719	0.93858486
28	0x3f819c52	1.012583
29	0x3f885f7f	1.0654143
30	0x3f8035ee	1.0016458
31	0x3f81305e	1.0092885

bn1.bias f4 [32]
0	0xbbde65f6	-0.006787057
1	0x3e0659b6	0.1312016
2	0xbdbb703a	-0.09152265
3	0x3c8fda72	0.017560218
4	0xbd0e750b	-0.03477959
5	0xbcd53a16	-0.026028674
6	0xbd8f23d7	-0.06989258
7	0xbc473e4e	-0.012160851
8	0xbd3bbaa2	-0.045832284
9	0xbc8543e2	-0.01626772
10	0xbe2a1c55	-0.1661237
11	0xbde84ae6	-0.11342411
12	0x3d75d57f	0.06001806
13	0xbd989cdc	-0.074517936
14	0x3c31223f	0.010811388
15	0x3d0d0edb	0.034437995
16	0xbdcc5727	-0.099775605
17	0xbcf3d629	-0.029765205
18	0xbcb7bb3f	-0.022428153
19	0xbc86df9a	-0.016464043
20	0xbd5a857f	-0.053349968
21	0x3b939ae2	0.0045045475
22	0x3d3ed838	0.04659292
23	0xbd309d2a	-0.043118633
24	0xbcf6ff7b	-0.03015112
25	0x3d1bf3f2	0.03807444
26	0xbe11cf82	-0.14239314
27	0xbd606c06	-0.05479052
28	0x3d64063f	0.05567002
29	0x3ce47c6a	0.027891356
30	0xbe04ef85	-0.12981994
31	0xbd259307	-0.04042342

bn1.running_mean f4 [32]
0	0xbe15de13	-0.14635496
1	0xbdc07389	-0.093970366
2	0x3cca1241	0.024666907
3	0x3e28eed3	0.16497354
4	0x3df1e35b	0.11810943
5	0x3b654e64	0.0034989351
6	0x3dde4491	0.10852922
7	0x3d297289	0.041368995
8	0xbb54a380	-0.0032446086
9	0x3d8cba17	0.06871431
10	0x3d2e493e	0.042550318
11	0x3d801a8e	0.06255065
12	0x3d951172	0.07278718
13	0x3dd2c05a	0.102905944
14	0xbd8e7ea1	-0.06957746
15	0xbd107b93	-0.0352741
16	0x3bb91021	0.0056476747
17	0xba39195a	-0.00070609676
18	0x3d10bf5e	0.035338752
19	0xbe387954	-0.18015033
20	0x3d83d42e	0.064369544
21	0xbd62fc77	-0.05541655
22	0x3db15dea	0.08660491
23	0xbd482cf9	-0.048871014
24	0x3e266f4d	0.16253395
25	0xbe6cd19c	-0.23126835
26	0x3d1457f6	0.0362167
27	0xbe197261	-0.14985038
28	0xbd77478b	-0.060370963
29	0x3ddc391c	0.1075308
30	0xbd7eec15	-0.062236864
31	0x3d6fc168	0.058534056

bn1.running_var f4 [32]
0	0x3d46ae30	0.048505962
1	0x3d077cb1	0.0330779
2	0x3d0fd960	0.035119414
3	0x3d485484	0.048908725
4	0x3d39efa6	0.045394562
5	0x3d2e6352	0.042575188
6	0x3d47ce42	0.048780687
7	0x3d4a242f	0.049350914
8	0x3d36b21e	0.04460346
9	0x3d3f9fca	0.046783246
10	0x3d7254e6	0.059162997
11	0x3d33b899	0.043877218
12	0x3d59a974	0.05314012
13	0x3d44ef5b	0.04807983
14	0x3d82c30e	0.0638486
15	0x3d2746a2	0.040838845
16	0x3d1b254d	0.03787737
17	0x3d140d88	0.036145717
18	0x3d2c0c05	0.04200365
19	0x3d7d3fbb	0.061828356
20	0x3d3dd647	0.04634693
21	0x3d675f24	0.056487218
22	0x3d32cbc5	0.04365136
23	0x3d3d451e	0.046208493
24	0x3d3cb419	0.046070192
25	0x3d72c7d8	0.059272617
26	0x3d5d184e	0.053978257
27	0x3d1d013f	0.038331266
28	0x3d5a21be	0.053254835
29	0x3d4d84a0	0.05017531
30	0x3d64dcc7	0.055874612
31	0x3d34bf6e	0.044127874

bn2.weight f4 [16]
0	0x3fa6b5a2	1.302418
1	0x3fac88da	1.3479264
2	0x3fa1a26b	1.2627691
3	0x3fa4c4b4	1.2872529
4	0x3fa41435	1.2818667
5	0x3f9da72f	1.2316645
6	0x3fb686b6	1.425986
7	0x3fa19dc2	1.2626269
8	0x3face00f	1.3505877
9	0x3fab53f7	1.3384999
10	0x3fb08e81	1.3793489
11	0x3f9e1554	1.2350259
12	0x3fa98c19	1.324588
13	0x3fb1b3ca	1.3882992
14	0x3f9f7682	1.2458041
15	0x3fa32627	1.2746018

bn2.bias f4 [16]
0	0x3d1ca0a6	0.038239144
1	0xbc5cbb07	-0.013472325
2	0x3da849c6	0.08217196
3	0xbd90b183	-0.07065108
4	0x3c1bffbf	0.009521424
5	0xbd24c3d5	-0.040225822
6	0xbe0ac732	-0.1355255
7	0x3cc8ea8c	0.024525903
8	0xbd127d7c	-0.035764202
9	0xbdc24c0e	-0.094871625
10	0xbadfd84c	-0.0017078011
11	0xbd24001f	-0.040039178
12	0xbd963c48	-0.073357165
13	0xbd309684	-0.043112293
14	0xbd08eb39	-0.03342745
15	0xbc6ad137	-0.014332107

bn2.running_mean f4 [16]
0	0x3cca4e1d	0.02469545
1	0xbca0f006	-0.019645702
2	0x3d26cf34	0.040724948
3	0x3e2ef9f4	0.17087537
4	0x3e04b19e	0.1295838
5	0x3dffe4ca	0.1249481
6	0x3dc25ec0	0.094907284
7	0xbe382887	-0.1798421
8	0x3eef1af4	0.4670025
9	0xbc73874e	-0.014863802
10	0x3e647bad	0.22312804
11	0x3d5c00b0	0.053711593
12	0x3dea5dcd	0.11443672
13	0x3e19268c	0.1495611
14	0xbe838388	-0.25686288
15	0x3e928ce6	0.28623122

bn2.running_var f4 [16]
0	0x3e86294e	0.26203388
1	0x3e96254a	0.29325324
2	0x3ea8f953	0.3300272
3	0x3e60efa8	0.21966422
4	0x3e8fe0d5	0.2810122
5	0x3e8d0aab	0.27547202
6	0x3ece24b9	0.40262392
7	0x3ebd8dd8	0.3702228
8	0x3e859afb	0.26094803
9	0x3e663bb0	0.22483706
10	0x3e9c2c8e	0.30502743
11	0x3e5b699d	0.21427007
12	0x3eb074e9	0.34464195
13	0x3e9e1dbb	0.30882058
14	0x3e54ac37	0.2076882
15	0x3e6ee326	0.23328838

lin1.weight f4 [256, 576]
0	0x3d1f212e	0.038850002
1	0xbd4e927c	-0.050432667
2	0xbbdd4e14	-0.0067536924
3	0x3d7f83c1	0.06238151
4	0x3d6e1250	0.058122933
5	0x3d4b658a	0.049657382
6	0x3d40b866	0.047050856
7	0xbd7add20	-0.061246037
8	0xbd69c7f1	-0.057075445
9	0x3d3d6f5f	0.04624879
10	0xbd16f41c	-0.036853895
11	0xbcbfce12	-0.023413692
12	0x3ccc4fb4	0.02494035
13	0x3d68b021	0.056808595
14	0x3c76888e	0.015047206
15	0x3c641860	0.013921827
16	0xbcab5ef7	-0.020919306
17	0xbd0aa5e4	-0.033849612
18	0xbd6d2ebc	-0.057905897
19	0x3c0807bb	0.008302624
20	0x3c9c2748	0.0190617
21	0xbd16041e	-0.03662502
22	0xbc82ee12	-0.015982661
23	0xbd8ad83b	-0.06779524
24	0xbd083c77	-0.03326079
25	0xbd0b0479	-0.033939812
26	0xbd8bd690	-0.06828034
27	0x3d3456ec	0.044028208
28	0x3dae6806	0.08515935
29	0x3dac9c88	0.084282935
30	0xbd0d07f7	-0.034431424
31	0xbd8b9575	-0.06815616
32	0x3d019e7a	0.031645276
33	0xbc8f3fb9	-0.01748644
34	0x3d9a2cec	0.075280994
35	0x3ce60ab3	0.028081274
36	0x3db284a9	0.08716709
37	0xbe04573c	-0.12923902
38	0x3c86aca8	0.01643975
39	0x3d38581e	0.04500591
40	0x3d160c30	0.036632717
41	0x3cde2893	0.027118957
42	0xbc7e9f38	-0.01554089
43	0xbdb8961e	-0.090130076
44	0xbdddc39a	-0.10828324
45	0xbc3aca3a	-0.011400754
46	0x3c5c8809	0.013460168
47	0xbde0c3cd	-0.10974846
48	0x3dbf2229	0.093326874
49	0x3db1ca66	0.086811826
50	0xbc73871c	-0.014863756
51	0xbd0ac131	-0.033875648
52	0x3c1138df	0.008863657
53	0xbde1b140	-0.11020136
54	0x3d17ddce	0.037076764
55	0xbc01bb8e	-0.007918252
56	0x3dac7663	0.08421018
57	0x3d411cae	0.04714649
58	0xbcc8a0ed	-0.024490798
59	0xbd3a0f71	-0.045424882
60	0xbc341f84	-0.010993842
61	0xbda55e05	-0.080745734
62	0xbd94d7f8	-0.07267755
63	0xbb834b70	-0.0040067956
64	0x3d2ae328	0.04172054
65	0x3d254eb2	0.040358253
66	0x3d4be17f	0.049775597
67	0x3d02aeef	0.03190511
68	0xbc2d682c	-0.010583919
69	0xbc967d02	-0.018370155
70	0x3db90671	0.09034432
71	0x3b80bba7	0.00392862
72	0x3d406a6c	0.04697649
73	0x3c5e1e9f	0.013557105
74	0x3c8aadfc	0.016928665
75	0x3d9c1552	0.07621254
76	0xbc78fbcf	-0.015196755
77	0xbc97c217	-0.018525166
78	0xb8266b61	-3.967749e-05
79	0x3d1e3ed0	0.03863412
80	0xbc156c91	-0.0091201225
81	0xbd608b4a	-0.054820336
82	0xbd97a90d	-0.07405291
83	0xbd8073ca	-0.06272085
84	0xbd1768b3	-0.036965083
85	0x3c46fc63	0.012145135
86	0x3ca45851	0.020061644
87	0x3b609fb7	0.0034274885
88	0xbcdcf919	-0.026974248
89	0x3b1add45	0.0023630422
90	0x3d76ec44	0.060283914
91	0x3d42faed	0.047602583
92	0xbd323c5e	-0.043514602
93	0xbd03b634	-0.032156184
94	0x3afcf3f6	0.001929878
95	0x3db37507	0.087625556
96	0x3bd37b17	0.0064538824
97	0x3c921ecd	0.017836953
98	0xbd144592	-0.03619916
99	0xbce2508a	-0.027626295
100	0x3c3205ab	0.010865609
101	0xbc38e77d	-0.01128566
102	0x38ea78dc	0.00011180501
103	0xbcfc1361	-0.03077096
104	0xbdc84671	-0.09779061
105	0xbd3a614b	-0.045502942
106	0xbc960635	-0.018313507
107	0xbd39b63d	-0.04533981
108	0xbd7b8029	-0.06140152
109	0x3ccfcd8e	0.02536657
110	0x3ab8cab1	0.0014098493
111	0x3cb872b7	0.022515638
112	0xbc78ac56	-0.015177807
113	0x3d2160ae	0.03939884
114	0x3d0fed48	0.0351384
115	0x3bf5b36f	0.007498197
116	0x3cea8ccd	0.028631592
117	0x3d105373	0.035235833
118	0x3d04c1cf	0.032411393
119	0x3d655e47	0.055998113
120	0x3ba01fa9	0.0048865867
121	0x3c81d2dd	0.015847618
122	0x3c03823a	0.008026654
123	0x3d06f08d	0.03294425
124	0xbca2fd86	-0.01989628
125	0x3ceab101	0.028648855
126	0x3cc0ea1c	0.023549132
127	0xbc960f33	-0.018317794
128	0xbb96c2b2	-0.004600846
129	0xbd3d82ab	-0.046267193
130	0xbcfb9365	-0.030709932
131	0x3d0a8ed4	0.033827618
132	0x3d4d11cf	0.05006581
133	0xbcd62429	-0.02614029
134	0xbcae7f4e	-0.021300938
135	0xbe130fc5	-0.14361484
136	0xbd7aad98	-0.06120071
137	0xbda73cb5	-0.08165876
138	0xbc8efe4e	-0.017455246
139	0xbd2c89d8	-0.042123646
140	0x3d9ec236	0.077518865
141	0x3db75d39	0.08953328
142	0x3db9a913	0.090654515
143	0x3d546e90	0.051863253
144	0xb9d0183c	-0.00039690908
145	0xbd088852	-0.03333313
146	0x3c01b056	0.007915577
147	0x3cbdeb37	0.023183448
148	0x3bd3c4e9	0.0064626825
149	0x3cfd71fd	0.030938143
150	0x3c804c40	0.015661359
151	0x399506a8	0.00028424454
152	0xbd13408c	-0.03595023
153	0xbda98834	-0.08277932
154	0x3c3d4d8e	0.011554135
155	0xbd62c7bc	-0.055366263
156	0x3d255c05	0.04037096
157	0x3c84431d	0.016145283
158	0x3c899ec5	0.01679934
159	0x3d239606	0.039937995
160	0x3d3061a8	0.043061882
161	0x3c3bad5b	0.011454905
162	0xbd812295	-0.06305424
163	0x3a328630	0.00068101566
164	0x3d37e9f5	0.044900853
165	0x3c596774	0.013269294
166	0x3b3cd790	0.0028815009
167	0x3cf6ec51	0.030141981
168	0x3c0f1be8	0.008734681
169	0xbd6c6d3b	-0.057721358
170	0xbd8e0051	-0.06933654
171	0xbced88ef	-0.02899596
172	0x3d0d70f4	0.03453155
173	0xbc4d710c	-0.0125391595
174	0x3d26568b	0.040609878
175	0x3d15027b	0.03637932
176	0x3be3b024	0.006948488
177	0x3b7c9ea9	0.0038546717
178	0xbd817158	-0.06320447
179	0xbc67a49f	-0.01413837
180	0xbd14ab21	-0.036296014
181	0xbc098f61	-0.008396001
182	0x3adcf57a	0.0016857826
183	0x3c81e01d	0.015853936
184	0xbd0ea08e	-0.034821086
185	0xbb467024	-0.0030279243
186	0xbd298449	-0.041385923
187	0x3d7a8d2a	0.06116978
188	0xbd88a288	-0.066716254
189	0xbc9a9c7a	-0.018873442
190	0xbd83e5b6	-0.06440298
191	0x3cb44972	0.022007678
192	0xbbaf93f8	-0.0053582154
193	0x3b6293d2	0.003457297
194	0x3cd23367	0.025659276
195	0xbd241038	-0.04005453
196	0xbccfbcd7	-0.0253586
197	0xbb6b2008	-0.0035877246
198	0x3d8b991b	0.06816312
199	0x3d1d8a79	0.038462136
200	0x3d799432	0.060932346
201	0x3d9202bc	0.07129428
202	0x3dccba7d	0.09996507
203	0xbbae8941	-0.0053264205
204	0xbd172305	-0.03689863
205	0xbd78370b	-0.060599368
206	0x3abb4c93	0.0014289789
207	0x3af0e9be	0.0018380207
208	0xbd29279f	-0.04129755
209	0x3de85c79	0.11345763
210	0xbc2488e6	-0.010042405
211	0xbd8b1227	-0.06790572
212	0x3d9b72ef	0.07590281
213	0x3cb0a92d	0.021565044
214	0xbc1368ff	-0.008997201
215	0x3d02e716	0.031958662
216	0xbd83274b	-0.06403979
217	0x3c6a7650	0.014310434
218	0x3d75c0f2	0.05999846
219	0xbbb0f3f1	-0.005400174
220	0xbdca8690	-0.09888947
221	0x3d44eb90	0.048076212
222	0xbdd2bce0	-0.10289931
223	0xbcc05644	-0.023478635
224	0xbcf26657	-0.029589815
225	0x3ced9e13	0.02900604
226	0xbdab6d45	-0.08370451
227	0x3d3047a0	0.043037057
228	0x3d357ec4	0.044310346
229	0x3d632186	0.055451892
230	0x3be7186c	0.007052472
231	0x3d53d31a	0.051714994
232	0x3c2a7742	0.01040441
233	0xbc523e5f	-0.012832253
234	0x3c7fa688	0.015603669
235	0x3c8307df	0.015994964
236	0x3b210c24	0.0024573887
237	0x3de42397	0.11139601
238	0xbcc6b6ed	-0.024257148
239	0xbdb57e15	-0.08861939
240	0xbd0754eb	-0.03303997
241	0x3d02c28d	0.03192382
242	0xbd804f61	-0.0626514
243	0xbd1cec77	-0.038311448
244	0xbd838836	-0.064224645
245	0x3dc2c377	0.09509938
246	0xbdd52372	-0.10407151
247	0x3d98d4d9	0.074624725
248	0xbd84304e	-0.06454526
249	0xbd4a3431	-0.04936618
250	0xbd294542	-0.041325815
251	0x3c0d78e8	0.008634783
252	0xbcbc0220	-0.022950232
253	0x3a8386c2	0.0010034668
254	0x3d56aab4	0.05240889
255	0x3ce43b41	0.027860286

lin1.bias f4 [256]
0	0x3cbda231	0.023148628
1	0x3d24468a	0.040106334
2	0x38bdb3d9	9.0457215e-05
3	0xb8d240ae	-0.00010025628
4	0xbcf7156a	-0.030161578
5	0x3c1c3d57	0.009536109
6	0xbc9a1be9	-0.018812137
7	0xbd090d94	-0.033460215
8	0xbcf4361d	-0.02981096
9	0x3cdd40a0	0.027008355
10	0xbbc3d276	-0.0059760166
11	0xba1dd70a	-0.0006021118
12	0xbcebfe21	-0.028807702
13	0xbba74fc5	-0.005105945
14	0x3c688295	0.014191289
15	0xbc9fca04	-0.019505508
16	0x3d0aa8a7	0.033852246
17	0xbcd461e6	-0.025925588
18	0xbcb474f7	-0.02202843
19	0xbc03d6f2	-0.008046852
20	0x3c2812fb	0.010258432
21	0x3c813d11	0.015776189
22	0xba3543dc	-0.0006914714
23	0xb96f6c37	-0.0002283313
24	0xbd025fb3	-0.031829547
25	0x3c9f74c3	0.019464856
26	0xbb811389	-0.0039390964
27	0x3ca7e634	0.020495512
28	0xbd1664c5	-0.036717195
29	0xbd217b72	-0.039424367
30	0xbc62ae95	-0.013835569
31	0x3ce0d182	0.027443651
32	0xbd277477	-0.040882554
33	0xbc83580b	-0.016033193
34	0x3c7f12cd	0.015568447
35	0xbc835b0b	-0.016034624
36	0xbbd3a44e	-0.0064587956
37	0xbc8b3a34	-0.016995527
38	0xba45ec6a	-0.0007550182
39	0xbd1d3d3e	-0.038388483
40	0x39a235c7	0.00030939115
41	0xbbed7d53	-0.007247606
42	0xbc640410	-0.013916984
43	0x3ca48b88	0.020086065
44	0x3ca62336	0.020280462
45	0x3d07e483	0.03317691
46	0xbc5d4931	-0.01350622
47	0xbbc9e4bd	-0.006161301
48	0x3bbf29a3	0.005833821
49	0x3c524768	0.012834407
50	0xbd0f099c	-0.034921274
51	0xbcbe02fb	-0.02319478
52	0x3cefa7c0	0.029254794
53	0x3b52af7b	0.0032148052
54	0xbbcade16	-0.0061910255
55	0x3b083d4a	0.0020788484
56	0xbcea7c9e	-0.028623875
57	0x3d119287	0.03554013
58	0xbc681791	-0.014165775
59	0xbcb15b8f	-0.021650104
60	0xbb019082	-0.0019769971
61	0x3cc0f9ef	0.023556678
62	0xbcf04a6a	-0.029332358
63	0x3d0774dc	0.03307043
64	0xbb7ee840	-0.0038895756
65	0xbc5c708d	-0.013454569
66	0x3bb1ec4b	0.0054297796
67	0xba12f29a	-0.00056056085
68	0x3ce855ee	0.028361287
69	0x3d167b3c	0.03673862
70	0xbc1174ce	-0.008877946
71	0xbc48fcd8	-0.012267314
72	0xbcf1ced8	-0.029517576
73	0x3c30a337	0.010781101
74	0x3b9fb4be	0.004873841
75	0xbc73848a	-0.014863143
76	0x3d16d77e	0.036826603
77	0xbd302cdb	-0.043011528
78	0x3cd01843	0.025402194
79	0xb771d2f7	-1.44138385e-05
80	0xbd1eafae	-0.03874176
81	0x3cdc9b7a	0.026929606
82	0xbc8c678f	-0.017139224
83	0xbcaf8d63	-0.021429723
84	0xb5d36f0b	-1.5753043e-06
85	0xba859d4d	-0.0010193974
86	0x3cf70079	0.030151593
87	0xbbededfd	-0.0072610364
88	0x3c2f85e1	0.010713072
89	0xbc83bf1a	-0.016082335
90	0x3b5eae94	0.0033978568
91	0x3b5ffd68	0.0034178142
92	0x3c6b8433	0.0143747805
93	0x3ca5e536	0.020250898
94	0xbcb71875	-0.02235053
95	0xbae89729	-0.0017745245
96	0xbcc9f6a2	-0.024653737
97	0xbc5b2579	-0.013375633
98	0xbc92ad85	-0.017905006
99	0xbbd3916e	-0.0064565456
100	0xbcd33992	-0.025784288
101	0x3bcf5397	0.0063271034
102	0xbd0f6254	-0.035005882
103	0x3d3c75ed	0.0460109
104	0xbcc1e123	-0.023666924
105	0xbc514e4f	-0.012775018
106	0xbd5b1e4b	-0.053495687
107	0x3d021a30	0.031763256
108	0xbd0724e5	-0.03299417
109	0x3a902390	0.0010996927
110	0xbcec89e7	-0.02887435
111	0x3d11dfbc	0.03561376
112	0xbcfb1f6e	-0.030654635
113	0x3b348352	0.0027544093
114	0xbb8fb81c	-0.004385961
115	0xbd0b27be	-0.033973448
116	0x3c644aa0	0.013933808
117	0x3cbb8930	0.022892565
118	0x3b57de48	0.0032938886
119	0x3cd1394f	0.025540022
120	0xbcc993a0	-0.024606526
121	0x3ce5457a	0.02798723
122	0xbc7b989f	-0.015356212
123	0xbd1fdebc	-0.039030775
124	0xbcbf59a5	-0.023358176
125	0xbc70f653	-0.014707166
126	0xbd12a6e5	-0.035803694
127	0xbc11936f	-0.008885249
128	0x3c57127b	0.013126965
129	0xb9c75a25	-0.000380234
130	0xbd006dec	-0.03135483
131	0xbc585eef	-0.013206228
132	0xbd0feb2b	-0.035136383
133	0xbcebd313	-0.028787171
134	0x3b44db75	0.0030038033
135	0xbb8e690d	-0.004346019
136	0xbc553024	-0.013011966
137	0xbd078c4d	-0.033092786
138	0x3b024e26	0.0019883006
139	0x3cf726b4	0.030169822
140	0xbc7b3032	-0.015331315
141	0xbc67d49c	-0.014149811
142	0xbc487394	-0.012234587
143	0xbc701f81	-0.014655949
144	0x3c2c31cd	0.01050992
145	0xbcefb659	-0.029261755
146	0x3cae9a34	0.021313764
147	0x3c8d9639	0.017283546
148	0x3c8c3e3a	0.017119516
149	0xbcece673	-0.02891848
150	0x3c40f09d	0.011776117
151	0xbcdaae48	-0.026694432
152	0x3d145716	0.036215864
153	0x3cae7166	0.021294307
154	0x3cd95ff9	0.026535021
155	0x3bddc53a	0.006767896
156	0x3d17561d	0.03694736
157	0xbcac42f5	-0.021028021
158	0xbc00b0f5	-0.00785469
159	0x3d0eadfb	0.03483389
160	0x3c85a934	0.016316034
161	0x3ce531b1	0.027977796
162	0x3d21447d	0.039371956
163	0xbc9daec8	-0.019248381
164	0xbd54fa75	-0.051996667
165	0x3c90987b	0.017650833
166	0xbbb6e5a7	-0.005581576
167	0xbc906522	-0.017626349
168	0xbc8d573c	-0.01725351
169	0x3c295bf0	0.010336861
170	0xbcb08551	-0.021547945
171	0xbc4c398a	-0.01246489
172	0x3d14b5ef	0.036306318
173	0xbcb30c3d	-0.021856422
174	0xb8a489a6	-7.8457684e-05
175	0x3ca72ffa	0.02040862
176	0xbcd6ed04	-0.026236065
177	0x3be2f8a5	0.0069266134
178	0xbc315283	-0.010822895
179	0xbd0f1526	-0.034932278
180	0x3c006963	0.007837626
181	0xbcbe47d3	-0.023227608
182	0xbc795b99	-0.0152195925
183	0xbd0bcc99	-0.034130666
184	0x3c477424	0.012173686
185	0xbce63407	-0.02810098
186	0xbbff2e46	-0.0077874986
187	0xbb982dc4	-0.0046441276
188	0xbaa99771	-0.001293881
189	0x3d221bec	0.03957741
190	0x3bdda7f9	0.0067644087
191	0xbd1d7c8b	-0.03844885
192	0xbb16c115	-0.002300327
193	0x3a287b53	0.0006427068
194	0xbcf44d0b	-0.029821893
195	0xbcddb1d5	-0.027062336
196	0xbc925d59	-0.017866777
197	0x3bdf236c	0.0068096425
198	0xbc4f8240	-0.012665331
199	0x3cd985c9	0.026553052
200	0xbc8f49b7	-0.017491205
201	0xbca96292	-0.020676885
202	0xbb90ae23	-0.00441529
203	0xbcc9d715	-0.024638692
204	0x3c339186	0.010959988
205	0x3cd3e5cb	0.02586641
206	0xbcad25f2	-0.021136258
207	0xbd184cd4	-0.037182644
208	0xbd00c555	-0.03143819
209	0xbbe7bf43	-0.0070723607
210	0xbce8bf4d	-0.028411532
211	0xbb34835f	-0.0027544124
212	0x3d19ff8c	0.037597224
213	0x3c69a18c	0.014259707
214	0x3b14e51c	0.0022719568
215	0xbcb3fe48	-0.021971837
216	0xbd3bc0c7	-0.045838144
217	0xbcfc8e80	-0.030829668
218	0xbcd54e0e	-0.026038196
219	0xbb3806c4	-0.0028080205
220	0x3ceedf34	0.029159166
221	0x3c11b890	0.008894101
222	0xb94530c7	-0.00018805555
223	0xbd45a93a	-0.04825709
224	0x3d1b360e	0.037893347
225	0x39a3594d	0.00031156317
226	0xbba98456	-0.0051732464
227	0x3b3ee051	0.0029125402
228	0x3c719c2f	0.01474671
229	0xbbc75428	-0.0060830303
230	0xbcb0cf9d	-0.021583373
231	0xbbc60856	-0.006043474
232	0xbb1af28b	-0.0023643102
233	0x3c94f190	0.018181592
234	0x3b1769cc	0.0023103831
235	0x3d2b824b	0.041872304
236	0x3cc83892	0.024441037
237	0xbce5025d	-0.027955228
238	0xbd3f0fcb	-0.04664592
239	0x3c6b155c	0.014348354
240	0x3b1009cb	0.0021978493
241	0x3cb2d705	0.021831045
242	0x3cb4e07f	0.022079704
243	0x3c914ca1	0.017736735
244	0xbc275af5	-0.010214557
245	0xbb4c5c6a	-0.0031183013
246	0xbd1c7480	-0.03819704
247	0x3cd9982e	0.026561823
248	0xbcbe0446	-0.023195397
249	0x3ce7e05d	0.028305227
250	0xbc5a40a9	-0.01332108
251	0x3d03fcde	0.032223575
252	0xbc1dcc45	-0.009631221
253	0xbc7d8fd1	-0.015476183
254	0x3cb11460	0.02161616
255	0x3b389152	0.002816279

lin2.weight f4 [128, 256]
0	0xbd5fe84a	-0.054664887
1	0xbd231e1e	-0.039823644
2	0x3d38129f	0.044939633
3	0xbca30df9	-0.019904124
4	0xbd556448	-0.05209759
5	0x3e3d601e	0.18493697
6	0x3c1e9cfb	0.009680982
7	0x3c363d6d	0.0111230435
8	0xbdac88b8	-0.084245145
9	0xbdb24464	-0.08704451
10	0x3da18905	0.078874625
11	0x3e23630b	0.1595575
12	0xbc852e81	-0.016257526
13	0xbbe01e8e	-0.00683958
14	0x3d4cf63e	0.050039522
15	0xbca273c3	-0.01983059
16	0xbd1a4c0e	-0.037670188
17	0x39e5a8ff	0.00043804196
18	0x3d75d527	0.06001773
19	0x3e04eb4a	0.1298038
20	0xbc98facf	-0.018674282
21	0x3e01da09	0.1268083
22	0xb951c304	-0.00020004442
23	0x3bca8124	0.0061799455
24	0xbdb88f65	-0.09011725
25	0xbccd2a2f	-0.025044529
26	0x3d31ee6a	0.04344026
27	0xbd97d50e	-0.07413684
28	0x3d87766a	0.066143826
29	0x3d4f3cd3	0.050595116
30	0xbe397a28	-0.18113005
31	0x3d83098f	0.063983075
32	0x3d9a17f9	0.07524104
33	0x3dff2678	0.12458509
34	0x3d024930	0.03180808
35	0x3d6d3500	0.057911873
36	0x3e1a32fc	0.15058511
37	0x3d035654	0.03206475
38	0xbdd8f6b4	-0.1059393
39	0x3c8a480e	0.016880061
40	0xbcbe9025	-0.023262093
41	0xbdb83946	-0.08995299
42	0xbd084fae	-0.033279113
43	0x3dea136f	0.11429488
44	0xbd95fe08	-0.07323843
45	0x3e0707fc	0.1318664
46	0x3e74a188	0.23889744
47	0xbd910a82	-0.07082082
48	0x3c0ec22b	0.008713285
49	0xbd851b41	-0.06499339
50	0xbd8dd677	-0.069256715
51	0x3e02aaf9	0.12760533
52	0x3d4c6e63	0.04990996
53	0x3d895b66	0.06706886
54	0x3d885d69	0.066584416
55	0x3d91aae1	0.07112671
56	0xbdade666	-0.08491211
57	0x3ca82d4e	0.020529415
58	0x3d619263	0.055071246
59	0x3d7172b7	0.05894729
60	0x3df21201	0.1181984
61	0xbdaca241	-0.08429385
62	0xbcb6e9b9	-0.022328245
63	0x3d8648ce	0.06556855
64	0x3d3988e9	0.045296583
65	0xbc0bfdf0	-0.00854443
66	0xbd42c247	-0.04754856
67	0x3ba8948a	0.0051446604
68	0xbdc414f1	-0.09574307
69	0xbd0fdef1	-0.035124723
70	0x3d4c90c0	0.04994273
71	0x3d893e01	0.067012794
72	0xbdbfb3ca	-0.09360464
73	0xbe433b36	-0.19065556
74	0x3d95f224	0.07321575
75	0xbc2b4ed7	-0.010455809
76	0x3cd6690d	0.026173139
77	0x3e5c1dfd	0.21495815
78	0x3c8c0410	0.01709178
79	0x38aec277	8.3331885e-05
80	0x3d996b05	0.074911155
81	0xbde0f46d	-0.109841205
82	0xbc152965	-0.0091041075
83	0xbceadac6	-0.028668772
84	0x378298e4	1.5568403e-05
85	0x3d4f1ace	0.050562672
86	0x3cc2af64	0.023765273
87	0xba8c3d51	-0.0010699426
88	0xbd81d303	-0.063390754
89	0x3cb17901	0.021664144
90	0x3d0510a8	0.032486588
91	0x3daba54b	0.083811365
92	0x3d257e02	0.040403374
93	0xbe4beac3	-0.19913773
94	0xbc4a9548	-0.012364693
95	0xbb6a7528	-0.0035775397
96	0xbd785f01	-0.060637478
97	0x3c0d770b	0.008634339
98	0xbce51d49	-0.027968066
99	0xbcda3b00	-0.026639462
100	0xbd175b92	-0.036952563
101	0x3dc53531	0.09629286
102	0xbd13731b	-0.035998445
103	0xbd63fde6	-0.05566206
104	0xbc943d50	-0.018095642
105	0xbd85a65c	-0.06525871
106	0xbde3231c	-0.11090681
107	0xbc4996c5	-0.012304013
108	0xbbd6fc68	-0.006560851
109	0xbc80fd05	-0.01574565
110	0x3e4acbf4	0.19804364
111	0x3c48989c	0.012243416
112	0x3cc4b387	0.024011387
113	0xbd83238a	-0.06403263
114	0x3d8b17e7	0.067916684
115	0xbdbb6265	-0.09149627
116	0x3e1b67ce	0.15176317
117	0xbcc214dc	-0.023691587
118	0xbcedf55f	-0.029047666
119	0xbd45092f	-0.04810446
120	0xbc8736b2	-0.016505573
121	0x3ccfb7a8	0.025356129
122	0x3ca71f5d	0.020400697
123	0x3dbae44c	0.091255754
124	0x3ba90096	0.0051575406
125	0xbd8164fb	-0.063180886
126	0x3e04127e	0.12897679
127	0xbcf4f253	-0.029900705
128	0x3d41d1a5	0.047319073
129	0xb84953de	-4.800024e-05
130	0x3e05298f	0.13004135
131	0x3e131ced	0.14366503
132	0x3d3a8ef9	0.045546506
133	0xbd8531ff	-0.065036766
134	0xbce48423	-0.027895039
135	0x3bac92fd	0.005266546
136	0xbc077e1a	-0.008269811
137	0xbcfa9962	-0.030590717
138	0xbdcc9183	-0.09988692
139	0xbe2563b5	-0.16151316
140	0x3d975f11	0.07391179
141	0x3d88de34	0.06683007
142	0xbdf51ced	-0.11968408
143	0xbc959b49	-0.018262522
144	0xbd9846f7	-0.074354105
145	0xbd396acb	-0.04526786
146	0xbc54c74b	-0.012986968
147	0xbde259c5	-0.110522784
148	0x3d6b2492	0.057407923
149	0xbd3f9f47	-0.046782758
150	0x3d588d5f	0.052869197
151	0x3aedd62b	0.0018145492
152	0x3d479e4c	0.048734948
153	0x3d8c652b	0.06855234
154	0x3e2a0dfe	0.166069
155	0xbdf259a4	-0.11833504
156	0x3dd571e7	0.10422116
157	0xbd075f10	-0.033049643
158	0x3daf2482	0.08551885
159	0xbc65aab4	-0.01401775
160	0x3d294963	0.041329753
161	0xbc2417f2	-0.010015475
162	0x3b53b8bc	0.0032306155
163	0xbd4db745	-0.050223608
164	0x3d1a7f01	0.037718777
165	0x3d41932f	0.047259506
166	0xbcefb377	-0.02926038
167	0xbdd503af	-0.10401093
168	0xbd32d614	-0.043661192
169	0xbd53329e	-0.051561944
170	0x3e976a91	0.2957349
171	0x3d8a8e1a	0.06765385
172	0xbbed4172	-0.0072404677
173	0x3ca528cc	0.020161055
174	0x3b7acdf4	0.003826973
175	0x3b86075d	0.0040902332
176	0xbd90f624	-0.070781976
177	0x3cd66fe7	0.026176406
178	0x3d8effd4	0.06982389
179	0xbd3909d9	-0.045175407
180	0xbe6b5787	-0.22982608
181	0x3c928577	0.017885907
182	0x3e0b7499	0.13618697
183	0x3cea5203	0.02860356
184	0x3e058043	0.13037209
185	0xbd84aa74	-0.06477824
186	0x3989c5b8	0.00026277988
187	0x3ddcf030	0.10788
188	0x3d254383	0.040347587
189	0xbd4fc6c4	-0.050726667
190	0xbbd640f6	-0.0065385057
191	0xbd8ad5c7	-0.06779056
192	0x3aca8031	0.0015449581
193	0x3d0db2da	0.034594394
194	0x3e207a70	0.15671706
195	0xbdfbf56c	-0.1230267
196	0x3c108c3c	0.008822497
197	0x3dc8184a	0.09770258
198	0xbb172171	-0.0023060704
199	0x3dea9f44	0.11456159
200	0xbd2f217b	-0.04275654
201	0x3d464ca8	0.04841295
202	0xbd735cfe	-0.059414856
203	0xbd3f1049	-0.04664639
204	0xbd9d4e59	-0.07680959
205	0x3d7aa905	0.061196346
206	0xbc50852e	-0.012727065
207	0xbd307571	-0.04308075
208	0xbcd98c0e	-0.026556041
209	0x3de6cb96	0.112693
210	0xbcb208c5	-0.021732697
211	0xbdef7d23	-0.1169379
212	0x3d1bdaa6	0.038050316
213	0xbe488d22	-0.19585088
214	0x3e01dc2c	0.12681645
215	0xbd1c13ec	-0.038104936
216	0x3db9a4b6	0.09064619
217	0xbdba1eec	-0.09087929
218	0xbd1f6af6	-0.038920365
219	0x3da90ee3	0.082547925
220	0xbb8541a3	-0.0040666624
221	0xbde82d8a	-0.11336811
222	0xbbe43c4c	-0.0069651958
223	0x3d89a468	0.06720811
224	0xbd406acc	-0.04697685
225	0x3e03fc1f	0.12889145
226	0xbd72d005	-0.059280414
227	0x3bd27a1e	0.006423249
228	0xbdb87849	-0.090073176
229	0xbbc1daf4	-0.005915994
230	0x3d6fc541	0.058537725
231	0xbcd7a395	-0.02632312
232	0x3dcf8cf7	0.10134309
233	0xbcbd87d8	-0.023136064
234	0xbdaf0ec1	-0.08547736
235	0x3d71a308	0.05899337
236	0xbd88c98c	-0.06679067
237	0xbcb86225	-0.022507736
238	0x3b732e16	0.0037106327
239	0x3d06436a	0.032779135
240	0x3cedbe7f	0.0290215
241	0x3cc472c7	0.023980511
242	0xbd9816ad	-0.074262
243	0xbd275fc9	-0.040862832
244	0x3db5add7	0.08871048
245	0xbc586dfe	-0.013209818
246	0x3dbcc09b	0.09216424
247	0x3d83d025	0.06436185
248	0xbd0269df	-0.031839248
249	0xbb99807c	-0.004684506
250	0x3d341f6d	0.043975282
251	0xbcbfabea	-0.023397405
252	0xbbeda80e	-0.0072526997
253	0xbd8233bf	-0.06357526
254	0x3d5bbee7	0.053648856
255	0x3d7a40ab	0.06109683

lin2.bias f4 [128]
0	0x3c71de73	0.014762509
1	0x3d1dfc1c	0.03857051
2	0x3dc2268d	0.09480009
3	0x3c386bb2	0.011256145
4	0x3d3389da	0.043832637
5	0x3da1fb31	0.07909239
6	0x3c85830d	0.016297841
7	0x3d182b4c	0.037150666
8	0xbceeb0dd	-0.02913707
9	0x3d404198	0.046937555
10	0x3d6a59f2	0.057214685
11	0xbd025156	-0.03181585
12	0x3d88b64f	0.066753976
13	0x3d72a7a2	0.0592419
14	0x3cb408ab	0.02197679
15	0x3d5afebe	0.053465597
16	0x3d809342	0.06278087
17	0x3b250b62	0.0025183787
18	0x3da5521a	0.080723
19	0xba1668e8	-0.0005737678
20	0x3d862013	0.065490864
21	0x3d36b5c4	0.04460694
22	0x3d76b1ee	0.06022828
23	0x3d87e684	0.06635764
24	0x3c6c2599	0.014413261
25	0x3baf5c66	0.005351591
26	0xbbbe4199	-0.0058061597
27	0x3d964c3c	0.07338759
28	0x3c9428af	0.018085806
29	0x3d93f7d4	0.07225004
30	0x3c8ac5b1	0.01693997
31	0x3db4a9f9	0.08821482
32	0x3ccc55c9	0.02494325
33	0xbd20f3b2	-0.039294906
34	0x3be7cce0	0.0070739836
35	0xbc7ab25d	-0.015301314
36	0x3d1a5fb0	0.03768891
37	0xbcf60c53	-0.030035174
38	0x3cdca47a	0.026933897
39	0x3db9b80e	0.09068309
40	0x3ba7667a	0.0051086517
41	0xbc2643a3	-0.010147962
42	0x3d49f99e	0.04931032
43	0x3bbea374	0.005817825
44	0xbd3b932a	-0.045794643
45	0x3d8e1cbb	0.06939074
46	0xbbad81f7	-0.005295034
47	0xbb188d1c	-0.0023277467
48	0x3d4bef7e	0.049788944
49	0x3d902832	0.07038917
50	0x3d4fd8fd	0.050744046
51	0xbc3b251d	-0.011422423
52	0x3bff0ca5	0.00778349
53	0x3d206318	0.039157003
54	0x3dbc9766	0.092085645
55	0x3c1e0a6f	0.009646042
56	0xbc4d6d01	-0.012538196
57	0x3d1a4a3c	0.03766845
58	0x3d3975a1	0.045278195
59	0x3d61e9e0	0.05515468
60	0x3d869df3	0.06573095
61	0xbd06f5d4	-0.032949284
62	0x3c909fb1	0.017654272
63	0x3d9970e7	0.074922375
64	0x3d353f40	0.044249773
65	0x3c2a7f51	0.010406331
66	0xbbb77657	-0.005598824
67	0x3d9c6171	0.07635773
68	0xbc72e897	-0.014825962
69	0xbbf4089a	-0.0074473144
70	0xbc666c05	-0.01406384
71	0xbc142b6d	-0.009043557
72	0x3d7bc78b	0.061469596
73	0x3c3adf12	0.011405723
74	0xbcbf50ab	-0.023353895
75	0x3d8a9c55	0.06768099
76	0x3bb069fc	0.005383728
77	0x3cd7bee6	0.026336145
78	0xbc045377	-0.00807654
79	0x3ba14fad	0.004922828
80	0x3c54fba5	0.01299945
81	0x3d552373	0.05203576
82	0x3b379769	0.0028013831
83	0x3c532295	0.012886663
84	0x3c3c9d69	0.011512139
85	0x3b795ef5	0.0038050984
86	0x3db459e4	0.08806208
87	0x3d32d3e8	0.04365912
88	0x3bc486eb	0.005997529
89	0x3d951aa2	0.072804704
90	0x3d973586	0.07383256
91	0x3c854b20	0.016271174
92	0x3c28ae89	0.010295519
93	0xbc467ab4	-0.012114216
94	0x3d50f6a9	0.051016483
95	0x3d859499	0.065224834
96	0xbd637435	-0.055530746
97	0x3d0cdc4a	0.03438977
98	0x3a4c6e98	0.0007798462
99	0x3e11c831	0.14236523
100	0x3cfcb5ca	0.030848403
101	0x3d20ec3e	0.039287798
102	0x3d5d1654	0.053976372
103	0x3cac9b6e	0.021070208
104	0x3d71b85e	0.059013717
105	0xbbfaac05	-0.007649901
106	0xbc32b7cc	-0.010908078
107	0x3d8371dc	0.06418201
108	0xbd12032e	-0.035647564
109	0x3d30f632	0.04320354
110	0x3dd6a84c	0.10481319
111	0xbc5b62b2	-0.01339023
112	0x3c12856c	0.008942943
113	0x3c068f7e	0.008212922
114	0x3cd1ca24	0.025609083
115	0x3ded93d8	0.116004646
116	0x3d9da260	0.07696986
117	0x3d547148	0.051865846
118	0x3b87d695	0.004145453
119	0x3c08a2b1	0.00833957
120	0x3d5d6911	0.054055277
121	0xbc1d9082	-0.009616973
122	0x3ce5898a	0.028019685
123	0xbd085f5e	-0.033294074
124	0x3d64ce02	0.055860527
125	0x3d34e055	0.044159252
126	0xbca8bb46	-0.020597111
127	0x3d07a07f	0.033112045
