model/Reversi_6_6_ver2.model (torch, 805149 bytes, 21 tensors)

conv1.weight f4 [32, 4, 3, 3]
00000000: 1c5b 3dbd 2158 63bd 41f5 13bd 3ab1 b43d
00000010: ff05 583d 8941 3b3d 88f8 8dbd 482f 09bd
00000020: af29 eabd 4734 dcbd c8ae 8f3d cb63 96bc
00000030: e16e 7a3d a3cf f8bc 00e0 593d 7257 50bd
00000040: 23c0 a4bd 81be 46bd 59dc 6fbe d6f2 33be
00000050: bf5f af3c 0835 20be c8ad 52be 71ec 553d
00000060: 52ee c8bd 8589 013e 9012 083e 0187 6fbe
00000070: 31bd 1f3e 25ac 26be ac51 00bd bdf2 ac3d
00000080: 23fd 58bd 9419 a2bd 52d6 a3bd 013f 6c3d
00000090: 4a2e 55bc 7fcf b2bd 5bb6 1d3d 66e4 4abd
000000a0: 3d60 12be 7ad7 473c df98 e6ba 2f31 633d
000000b0: abc8 2d3d da44 11be 0d30 5fbd 3ca7 743d
000000c0: 4b8e 8cbd b0f7 c03b d014 133d 3cd2 9dbc
000000d0: aeb6 6bbd 8f17 8dbd 7438 89bd 56d2 2abe
000000e0: 8eab f13d 61de 803e 3efb 94bc 56b6 24bd
000000f0: b954 dabd 7964 aabd 7431 bdbd 47a8 c93d
00000100: 4701 4b3e b3a6 11bd 737f 61bd 6943 f1bc
00000110: f3d8 ebbd 47b4 cdbc 4560 c03d 2d95 ab3d
00000120: 0cd2 e1bd 96ca 2f3d ca1e ac39 20fb 93bd
00000130: 47f4 c8bd 5e7b 113e 68f4 1e3d 1bfd a5bd
00000140: 4567 c43b 6f02 ddbd 5595 183d 30f1 6ebd
00000150: 5da3 153e 5763 673c f46b e63d ec27 9f3b
00000160: 15ca 22be f47e 49bd 5df7 2b3e 8883 0b3d
00000170: 1c8c 4abd b25d b93d 94a0 38bd 7e31 d73d
00000180: 34e6 7abd 2b73 38be c17e 01bd d807 1b3e
00000190: 60e3 9a3d 1a6c 4e3d 121e fc3c 3805 5e3e
000001a0: e573 5fbd e6a9 bb3d 4136 c23d 9014 8cbd
000001b0: b197 9e3c 3ba5 ccb8 a941 163d f867 9ebd
000001c0: 4fcd 133d 8872 97bd 97c5 213d 62e9 89bc
000001d0: 341c 16bd 1acc 5dbd bd92 083d 37ea cd3d
000001e0: 06b1 89bd e269 b33a 382d d6bd bdf3 ed3d
000001f0: 0b16 783c 3d09 893c 858c a7bc f75a 683e
00000200: ed33 e8bd 4461 a83e ca4c 7b3c 6399 273e
00000210: 1835 32bd 453a 5c3e d85c 35bd d0bd 6f3e
00000220: 34c3 1aba d9ed 0e3d 158d d13d 9000 e2bc
00000230: 2352 583d 3921 f93b 0639 08bd 2494 43bd
00000240: 947d e43d dcfd 443d 9fc2 49bd b16b da3d
00000250: 3136 0c3e 9d29 cfbb 8dce 093e e8a8 363e
00000260: 0ca4 6c3c df1d 1bbc c68a ca3a 35ff 97bd
00000270: 3d7d 13bc e4ae ca3e 2ae6 87bd b156 3a3e
00000280: b6d3 503d b602 fc3c 7460 4d3c b99a de3c
00000290: 2ced 5cbb 2f76 fbba 0a2c 07be dea4 203d
000002a0: 1672 843c 4edf eb3b a0bf 153d eb2f ca3c
000002b0: 2a85 583c d30a 97bc 79cb a8bc c9a1 6ebd
000002c0: 05f5 ac3b cad0 b13c fff1 663c c0ee ce3c
000002d0: 73e5 783e 72ed f43d 5d3f c3bc 7dd1 953d
000002e0: 5456 c3bc 2ef5 10be be96 cc3c b442 34bd
000002f0: 7199 623d d68c 573e 3b97 97bd 40be c9bb
00000300: 1aae 3b3e b78a 68bd 3f3b 69bd af3d 56bc
00000310: 5501 6d3d fd8f c03c e8cb 8bbe 1a8e 92bd
00000320: 182f 84bc 4bb8 dd3d a5bb 35bd 35f7 edbd
00000330: 99ae d5bd 759a 033e 4e71 bd34 8c03 7fbd
00000340: 66ca 00be 385e a13d 3419 0bbe e9fe a4bc
00000350: adbd 8e3b 6f45 49bd 65b4 913d f2a3 c93d
00000360: 8ed5 68bd ad76 593d d2de 75bd fc72 5abc
00000370: bd99 f8bc 40d4 5f3d 0038 4f3b e1b1 00bc
00000380: b7d1 16be f1e4 eabd 879d ef3d c3a8 acbc
00000390: bc1b 843d 676f 0c3c cb98 69bd 196d c23c
000003a0: c15c f2bc c14c 11be 32c0 9bbd 4a8f cebd
000003b0: 99bf 453d 159d 153e 633f c43e 86f4 a4bd
000003c0: ade3 003d 4ed5 443e 0d9f df3d 9187 b93d
000003d0: a954 32bd 0126 763d 37df 94bc 0950 3b3d
000003e0: fdf9 083e c370 f5bc 3cf9 a43d 976b 113e
000003f0: 1459 6dbd 548e 6dbb aebe 68bd f750 523d
-0.046229467 -0.05550397 -0.036122564 0.08822866 0.052740093 0.045716796 -0.06932169 -0.033492357
-0.11433732 -0.107521586 0.07015759 -0.018358132 0.0611409 -0.030372446 0.05319214 -0.050864644
-0.0804446 -0.048521522 -0.234239 -0.17573103 0.02140796 -0.1564523 -0.20574105 0.05222744
-0.09811081 0.12650116 0.13288331 -0.23391344 0.15599515 -0.16276605 -0.03132789 0.08444736
-0.052975785 -0.07915035 -0.07999863 0.057677273 -0.013011524 -0.08730983 0.038503986 -0.049534224
-0.14294524 0.01219737 -0.0017593167 0.055466827 0.0424277 -0.14186421 -0.054489184 0.0597298
-0.06863078 0.0058889017 0.03590852 -0.019265287 -0.057547264 -0.06889259 -0.06700221 -0.166818
0.118002996 0.25169662 -0.018186208 -0.04021295 -0.10660691 -0.08319945 -0.09237948 0.098465495
0.19824706 -0.035559367 -0.055053186 -0.029451089 -0.11515989 -0.025110377 0.09393362 0.083780624
-0.110263914 0.04291781 0.00032829336 -0.07225633 -0.09812217 0.14207217 0.038807303 -0.08104917
0.005993756 -0.1079148 0.03725179 -0.058335483 0.146131 0.014122806 0.11251059 0.004857054
-0.158974 -0.049193338 0.1679358 0.034060985 -0.049450025 0.09051074 -0.045075014 0.10507487
-0.061254695 -0.18012683 -0.031615023 0.15139711 0.075628996 0.050396062 0.030776057 0.21681678
-0.054553885 0.09163265 0.09483004 -0.068398595 0.019359441 -9.7582546e-05 0.036683712 -0.07734674
0.03608447 -0.07394892 0.039495077 -0.016834918 -0.03664799 -0.054149725 0.033343066 0.100544386
-0.06723218 0.0013688172 -0.104578435 0.11618755 0.015141974 0.016728038 -0.020452747 0.2269095
-0.11338029 0.32886708 0.015338132 0.16367106 -0.043507665 0.21506603 -0.044277996 0.23412251
-0.00059037213 0.034894798 0.102319874 -0.027588159 0.052812707 0.0076028374 -0.033257507 -0.0477487
0.111567646 0.04809366 -0.04925787 0.10665072 0.13692547 -0.0063220994 0.13457699 0.1783787
0.014443409 -0.009467571 0.0015452735 -0.07421724 -0.009002027 0.39586556 -0.06635697 0.18197133
0.050983153 0.030763011 0.012535203 0.027173387 -0.0033710701 -0.0019185002 -0.13200393 0.03921973
0.016167682 0.007198251 0.0365597 0.024681052 0.013215343 -0.018437779 -0.020604836 -0.05825976
0.005278232 0.021706004 0.014095782 0.02526033 0.24306278 0.119593516 -0.023833925 0.07315347
-0.023844875 -0.14156029 0.024974223 -0.044008926 0.055322114 0.21049818 -0.07401892 -0.006156713
0.18328133 -0.056772914 -0.056941267 -0.01307623 0.0578626 0.023506159 -0.27304006 -0.0715601
-0.016135737 0.10826167 -0.044368405 -0.116194166 -0.104336925 0.1285189 3.5286433e-07 -0.062259242
-0.12577209 0.07879299 -0.13583833 -0.020141082 0.004356107 -0.049138483 0.07114486 0.09845723
-0.056844287 0.053091694 -0.06002695 -0.0133330785 -0.030346746 0.054645777 0.0031619072 -0.00785491
-0.14728437 -0.11469448 0.11699968 -0.021076566 0.064506024 0.008571482 -0.05703048 0.023733662
-0.029585244 -0.14189436 -0.07605018 -0.10085924 0.048278425 0.14610703 0.3832961 -0.08054452
0.03146713 0.19221994 0.109190084 0.0905906 -0.04353777 0.060094837 -0.018172843 0.045730624
0.13376613 -0.029960996 0.0805535 0.14201199 -0.05794628 -0.0036248164 -0.05682247 0.051346745

conv1.bias f4 [32]
00000000: a5fd 74b7 806f 54b6 1767 36b8 2ad2 aab8
00000010: 4274 a5b8 347e 6538 27e0 1438 37f7 71b7
00000020: abb4 61b7 b34c 07b8 4c73 9ab6 d741 8db7
00000030: 6a05 0a37 cbec 5937 c740 0f37 4450 31b7
00000040: 772e 0337 c310 fcb7 4c40 9b37 d417 4a38
00000050: 3c45 f2b7 94bc 2a38 34d7 82b7 d1f4 b438
00000060: dcfe fdb7 1fdf d4b8 62ca de38 09c2 9cb8
00000070: 480d ac37 7dd0 5736 0e7a 7a37 0dee 5638
-1.46025895e-05 -3.1655363e-06 -4.348819e-05 -8.145378e-05 -7.889468e-05 5.471539e-05 3.5494708e-05 -1.4422279e-05
-1.345311e-05 -3.225794e-05 -4.60298e-06 -1.6839169e-05 8.2267015e-06 1.2989341e-05 8.538546e-06 -1.056871e-05
7.819027e-06 -3.0048546e-05 1.850738e-05 4.8182745e-05 -2.8880888e-05 4.0706786e-05 -1.559742e-05 8.6286695e-05
-3.0278628e-05 -0.00010150507 0.00010623482 -7.4748015e-05 2.0510182e-05 3.2158853e-06 1.4929579e-05 5.1243278e-05

conv2.weight f4 [16, 32, 3, 3]
00000000: a5bb 38bb 9e5b cfbc 7279 643d d440 483d
00000010: bba4 99bc d1d2 0a3d 067f 313d 7817 6bbd
00000020: 8746 1cbd 93e7 a73c 7282 383d c798 0bbd
00000030: 129b 433b a4c4 823b b974 013d 9ca6 18bd
00000040: 4233 0fbd b3ad 3dbc d30f da3c 83d3 fe3c
00000050: 4234 01be 3823 1b3b 36c9 23be 9a06 98bb
00000060: 263e 823d e30d c93c 4594 72bd 075a 883c
00000070: b0f0 aa3d f092 453c 54dd 8c3d e978 3c3c
00000080: f155 703d 7903 fa3c 3c93 873c 1440 87bc
00000090: 0887 e7bc 1840 013d 22d7 a13d 3e8a 183c
000000a0: a25e 553c 4096 053e ba13 64bd d043 26bd
000000b0: 5a09 5dbd 77db b03d 6a56 a63d 6f0c d0bd
000000c0: d995 42bd e71a 00be 8809 ba3c e5bd 7f3c
000000d0: c6ae 81bc b138 983c 33f6 9fbd e55f 163d
000000e0: 660a 38bc c307 623d a36e b1bc b9a7 e7bd
000000f0: 2fb6 1ebc e571 7dbd fa1e ab3d acad 913c
00000100: 8b73 023d d1ee 163d 1c1f 0f3d 3f17 e0bd
00000110: 365e a2bc 56b5 f9bc 2e65 03bd ec04 b73c
00000120: f8ac 4dbd 0fac 103d 6035 aebb cdd5 a13c
00000130: 0b0e 45bd 76f0 73bd 4a4c 90bc 1c7e f9bc
00000140: 47b6 2abd c699 1abd 7287 683c 258a 923c
00000150: 9aeb 923d 1a5e 503c 1cbe 2e3d 1513 63bb
00000160: 0fa0 82bc a58b d7bd b396 0f3d 0da1 273d
00000170: d1dc ffbc cfb8 7dbd e954 e83d b363 d33d
00000180: 66ea 3dbd 3881 59bc 2cb9 1b3e f022 703d
00000190: 2789 53bd e804 5fbc a2b9 883d 0108 dd3d
000001a0: 6ac8 343c ed18 893c 1a85 58bc 63dc d33c
000001b0: f82e 9dbc c6b4 a93d 2d51 8bb8 f952 45bd
000001c0: dee7 6e3d e7f8 66ba 7af0 333d 4a29 103d
000001d0: bef3 01be 25fc 1ebd c562 0a3d 777c 963c
000001e0: 6c3d 93bc 466c a5bd 53c5 ac3d 1558 87bd
000001f0: 8d26 bc3d f602 393c 9d1d 2f3d c080 37bc
00000200: 055c 393c 6a86 8c3b 2e21 27bd e2b9 053d
00000210: 08ae 90bd fc9b 5cbc aa5c 7d3d 22c6 373d
00000220: 0a31 52bc fa1d e9bc d4bf b6bc 2d01 983d
00000230: dd08 063d 527f 073d 5b90 81ba 02e7 44bd
00000240: 5eef 333d 38c6 bebc c0b2 3cbd 7cbe 7a3c
00000250: 359a 05bd 817e a1b9 4d5b bb3c 8cca 56bd
00000260: 638c 4d3d fb67 46bd 0ece 00be e36d 36bd
00000270: 34b2 27bd f14e 79bd bbbe b4bd 08fa 4c3d
00000280: 29b1 ca3d eeb0 acbd ee82 fabc 2b5b 22bc
00000290: 89f1 323d 2cbf 273d bbe8 7c3d fe30 5cbc
000002a0: 54b2 5a3c ac16 41bc 4334 31bc bc84 cfbd
000002b0: b86e 9bbd 45a4 38bc 85c5 1dbd 1a06 503d
000002c0: d90c 033d f039 97bd 4c50 983c 7c93 8ebd
000002d0: 9725 87bd a005 523d a3b5 a7bd cb63 473a
000002e0: 6783 953d 4dfa d2bd 9283 5cbd a0d6 853d
000002f0: 8e13 89bb 95b6 95bc c220 04bd 924f 843c
00000300: b47b 933d 58b9 1ebd bfb5 97bd bbe8 8d3c
00000310: b710 90bd f5f6 643d 05d8 763c 0fe9 563d
00000320: 7ca2 da3c faeb 55bd e5ed f23c f642 c0bd
00000330: 60f3 c6bb e373 85bd f669 8c3d 7713 36bd
00000340: 5e93 2bbd 0497 fdbc 72b6 9bbc 3744 2c3d
00000350: f586 d13d 1ff6 08bd f91e 9a3b 83bd d13c
00000360: ab1b cd3d abd9 09bd f843 50bd cdc8 d03d
00000370: 9d69 17bd e7e2 94bc a8a6 123d 0af1 5ebd
00000380: 1678 c53c f74a e93c 0f0f 1bbe 4cec 81bd
00000390: 8e50 06be 0236 58bc 7d41 be3b c51a bb3d
000003a0: a5e2 16bd 8560 6abb ed50 c7bc cb31 e33d
000003b0: ddab f23d 2b87 b0bd d6a8 2abe 4795 25bc
000003c0: 21d9 e6bb 2ae5 a93d f7a6 a63d c0e0 e33c
000003d0: 071a 253c 0396 0b3d 868b 03bd 0006 a63d
000003e0: aa8e ea3b 930c 6fbd 76ab edbc 1e52 b83d
000003f0: 9286 91bd 151a db3c 9c8e ca3b f8fb cabc
-0.0028188017 -0.025312241 0.05577988 0.04888995 -0.018755307 0.033892456 0.04333403 -0.05739543
-0.038153198 0.020496165 0.045046277 -0.034081247 0.0029847068 0.0039907265 0.031605456 -0.037268266
-0.034960993 -0.011577058 0.026618874 0.031106716 -0.12617591 0.0023672115 -0.15994725 -0.004639459
0.0635951 0.024542755 -0.059223432 0.01664449 0.08346689 0.012058958 0.068781525 0.011503437
0.05867571 0.030519234 0.016549699 -0.016510047 -0.02826263 0.031555265 0.079023615 0.009310303
0.0130230505 0.13045597 -0.055682875 -0.040592015 -0.053963996 0.086356096 0.08121951 -0.101586215
-0.047506187 -0.12510262 0.022709623 0.015609239 -0.015830409 0.01858172 -0.07810631 0.036712546
-0.011232948 0.055183183 -0.021659201 -0.113112874 -0.009686991 -0.061876196 0.08355518 0.017783009
0.03184847 0.036848847 0.034941778 -0.10941934 -0.019820314 -0.030481976 -0.032078914 0.022341214
-0.050213784 0.035320338 -0.0053164214 0.019755268 -0.048109096 -0.059555493 -0.017614502 -0.030455641
-0.04167774 -0.037744306 0.014192449 0.017888138 0.07173844 0.012717748 0.04266177 -0.0034648825
-0.015945463 -0.10524682 0.035055827 0.040925074 -0.031233223 -0.061943825 0.1134432 0.103217505
-0.046366118 -0.013275437 0.15207356 0.05862707 -0.05164447 -0.01361201 0.06676032 0.10792542
0.011034111 0.016735518 -0.013215328 0.025861925 -0.019187436 0.08286433 -6.643157e-05 -0.048174832
0.058326595 -0.0008810893 0.04393051 0.035195626 -0.12690637 -0.038814683 0.0337856 0.018369896
-0.017973624 -0.08077292 0.08436074 -0.06608597 0.091870405 0.01129221 0.04275285 -0.01120013
0.011313443 0.0042884843 -0.040803127 0.032647975 -0.07064444 -0.013464924 0.06185595 0.04486669
-0.012829075 -0.028456677 -0.022308268 0.07422099 0.032723296 0.033080406 -0.000988494 -0.04807187
0.04392945 -0.023287877 -0.046068907 0.015304204 -0.032617766 -0.00030802566 0.022870684 -0.052439258
0.05018271 -0.048439007 -0.12578604 -0.04453839 -0.040941432 -0.0608663 -0.088254414 0.050043136
0.09897072 -0.08432184 -0.03058001 -0.009909431 0.043687377 0.0409538 0.061745387 -0.013439415
0.013348181 -0.011785191 -0.010815683 -0.10132739 -0.07589477 -0.011269634 -0.038518447 0.05078707
0.031994674 -0.073840976 0.018592976 -0.06961724 -0.065989666 0.051274896 -0.08188941 0.0007606118
0.07300454 -0.10301647 -0.053836413 0.06535077 -0.0041832393 -0.018275538 -0.032257803 0.016151223
0.07201329 -0.038750976 -0.07407712 0.017322889 -0.07034438 0.05589958 0.0150661515 0.052468356
0.026688807 -0.052226998 0.029654453 -0.09387772 -0.006071493 -0.06516244 0.06856148 -0.044452157
-0.041888587 -0.030955799 -0.019007895 0.042057242 0.10230819 -0.033437844 0.0047033993 0.025603062
0.10015043 -0.03365485 -0.05084607 0.1019455 -0.036965955 -0.018174602 0.035803467 -0.05442909
0.024105113 0.028478129 -0.15142463 -0.06343898 -0.13116667 -0.01319647 0.0058061467 0.09135965
-0.03683724 -0.0035763097 -0.02433058 0.11093482 0.118491866 -0.08619531 -0.16665968 -0.010106391
-0.0070449268 0.08295663 0.08137315 0.02781713 0.010077006 0.03407861 -0.03211548 0.08106613
0.00715812 -0.0583616 -0.029012423 0.090000376 -0.071057454 0.026745835 0.006181551 -0.024778351

conv2.bias f4 [16]
00000000: 2f0b 1537 7e8d a0b6 acda 85b7 cc92 2838
00000010: 925e 0638 d608 d637 fde4 ae37 a4d4 6b38
00000020: 5149 ccb7 2abb 86b6 401f 88b5 0dcc 9236
00000030: 4b60 6635 c18d 15b8 8540 e3b7 2cf7 0ab8
8.883696e-06 -4.7848434e-06 -1.5956663e-05 4.0191037e-05 3.2036165e-05 2.5514903e-05 2.0849047e-05 5.6226403e-05
-2.4352836e-05 -4.0153e-06 -1.0141885e-06 4.3748937e-06 8.58218e-07 -3.5656387e-05 -2.7090553e-05 -3.313196e-05

bn1.weight f4 [32]
00000000: 8b2c 803f e083 673f 2477 773f fd62 7b3f
00000010: a5ed 963f e4ff 853f 8411 843f 41ab 773f
00000020: 2207 783f 588c 663f 8712 6a3f b521 5f3f
00000030: 504f 6e3f e105 803f 2b60 733f f593 6b3f
00000040: 0106 7f3f c6d2 783f d3bb 6f3f f340 7b3f
00000050: e5b9 7d3f 1de9 663f b6b4 7a3f 02d3 7f3f
00000060: 719f 6a3f 2c57 7b3f 8928 8e3f 5353 713f
00000070: ff77 813f 611e 873f a140 803f efed 7b3f
1.0013593 0.904356 0.9666617 0.9819792 1.1791273 1.0468717 1.0317845 0.9674569
0.96885884 0.900579 0.9143452 0.8716081 0.9308977 1.0001794 0.95068616 0.9202264
0.99618536 0.97196615 0.9364597 0.9814598 0.9911178 0.9019945 0.97931993 0.9993135
0.9164954 0.9817989 1.110612 0.9426777 1.0114745 1.0556146 1.0019723 0.9840993

bn1.bias f4 [32]
00000000: 1e64 babc 16a7 0b3e e9f6 dabd 6798 b73c
00000010: 3684 14bd aa58 abbc 7344 23bd 7482 1f3c
00000020: a516 86bd 4304 2a3d e83e 3bbe 9db8 01be
00000030: fda2 3f3d d820 e2bd 8b07 993c 2c7f a83c
00000040: 4502 a0bd 6bdf 2bbd 0e9c f9bc 5713 853c
00000050: 5905 dfbd 716d ae3b 1f50 e23d 63c8 f9bc
00000060: aad9 a4bc 60a1 a13d 3fb2 2cbe 9afb a8bc
00000070: bc60 4d3d f962 583d 8a4a 02be e35b fdbc
-0.022752818 0.13637957 -0.106916256 0.022411538 -0.0362589 -0.020916302 -0.0398602 0.009735692
-0.06547288 0.04150797 -0.18285716 -0.1266808 0.046786297 -0.11041421 0.018680355 0.020568453
-0.07812933 -0.041961115 -0.03046992 0.016244574 -0.10889692 0.005323105 0.11050438 -0.03049106
-0.020123322 0.07892108 -0.1686487 -0.020627785 0.05014108 0.052828763 -0.12723747 -0.030927604

bn1.running_mean f4 [32]
00000000: 90c8 2bbe 4f44 b8bd e2d6 323d 920a 263e
00000010: a963 4f3e 2afc 3139 9f53 fa3d c7d6 043d
00000020: 0464 1bbc e618 5b3d f954 1c3d 0092 b43d
00000030: c38c c33d 99a0 f23d fd45 c3bd 9a85 80bd
00000040: a9d6 f0bb 6895 303c 333c 0e3d 3903 43be
00000050: 6793 513d 115b f2bd b568 953d 3bbd 63bd
00000060: 6290 303e ad47 81be c1e1 413d c425 2ebe
00000070: 7233 46bd 8149 e03d 9fc2 05bd a878 093d
-0.16775727 -0.08997404 0.04366196 0.1621497 0.20252861 0.00016973974 0.12222981 0.03243139
-0.009484295 0.053490542 0.038166974 0.0881691 0.095483325 0.11847038 -0.095348336 -0.062754825
-0.0073498082 0.010777809 0.03472538 -0.19044198 0.051165964 -0.11833776 0.07295362 -0.055600386
0.17242578 -0.25249997 0.047334436 -0.17006594 -0.048388906 0.1095152 -0.03265631 0.033562332

bn1.running_var f4 [32]
00000000: b5f3 693d 3db9 1f3d ff2f 0d3d b9bf 583d
00000010: d2c8 603d cb33 243d 3bc7 6c3d 7816 653d
00000020: f856 433d bbad 643d 36c3 4f3d 9852 583d
00000030: 5c15 593d 7e54 413d 957c 863d c455 263d
00000040: e269 2d3d 9911 383d 78c8 153d 61ad 743d
00000050: 6b00 683d a51d 703d 4293 2b3d 3341 413d
00000060: c403 4a3d 3d16 853d d483 7e3d 4243 213d
00000070: e7f9 5f3d e3dc 663d 29e6 663d 791b 433d
0.057117183 0.038995016 0.0344696 0.052917216 0.054879017 0.040088456 0.05780719 0.05592963
0.04769036 0.055829745 0.050723277 0.052813143 0.052998886 0.04719972 0.06566731 0.040609136
0.042337306 0.044938657 0.036568135 0.05973566 0.056641024 0.05862202 0.041888483 0.04718132
0.049319997 0.06498382 0.06213744 0.039370783 0.054681685 0.056362998 0.05637184 0.04763362

bn2.weight f4 [16]
00000000: 646d a83f 845c b53f ecd6 a63f 6b3c a83f
00000010: 795e a73f 7220 9d3f cec7 c13f 0e6d a33f
00000020: 2d4e b13f aa80 b23f 31e2 b23f e46a 9f3f
00000030: 23c4 ad3f d37c b63f 44c5 a23f f5da aa3f
1.3158383 1.4168859 1.3034339 1.3143438 1.3075706 1.2275527 1.51391 1.2767656
1.3851982 1.3945515 1.3975278 1.2454495 1.3575481 1.4256843 1.2716451 1.334807

bn2.bias f4 [16]
00000000: fe18 613c c47f 22bd 051c 2a3d e51a ddbd
00000010: 47af 00bc 59c2 2dbd 4566 23be 3cad 2b3c
00000020: 456e 92bd 6120 abbd 57b6 09bd 6f8d c4bd
00000030: 8ade eabd 0fdf 80bd e253 f83a 7a42 b9bd
0.013738869 -0.039672628 0.041530628 -0.10796145 -0.007854289 -0.042421672 -0.15956981 0.010478314
-0.071499385 -0.08355785 -0.03362116 -0.09597289 -0.11468227 -0.06292545 0.0018945897 -0.090458825

bn2.running_mean f4 [16]
00000000: edc0 dfbd 860a 65bd a609 56bc 6a6f 3b3e
00000010: 17d4 413e d997 4d3e 977e a53d 7ff2 cbbe
00000020: 5982 0e3f d7c7 f6bc 929f 383e 913b 893d
00000030: 93ec b2bd 089d 733d 5399 6abe f9d3 d63d
-0.109254695 -0.05591824 -0.013063824 0.1830422 0.18928562 0.20077457 0.08080786 -0.39833447
0.55667645 -0.030124588 0.18029621 0.067008145 -0.08736529 0.05947593 -0.22910051 0.10489649

bn2.running_var f4 [16]
00000000: 0b29 943e 130d b83e 2bad aa3e 04be 8b3e
00000010: 7793 923e de4a a03e 187e e33e cf37 e13e
00000020: 1558 be3e 0387 953e 515f ec3e efd9 473e
00000030: ad67 cb3e a5fd 973e ec2c 8f3e 35cc a03e
0.28937563 0.35947475 0.33335242 0.27293408 0.28628132 0.3130712 0.4443214 0.4398789
0.37176576 0.29204568 0.4616647 0.19516729 0.39727536 0.29685703 0.2796396 0.31405798

lin1.weight f4 [256, 576]
00000000: 55dc 6e3b 54e0 3bbd f9a4 2abc 0756 783d
00000010: 626b 9e3d a7ca ba3d 9b69 2a3d a572 90bd
00000020: 375d 51bd b96b 833d 2c2a 0abd 013c 81bc
00000030: cf8d fe3b f590 2c3d 2fd8 153d 93dd c33c
00000040: e713 0ebd 8936 843c 0b34 6dbd 43ec d13c
00000050: 6535 e83b 79dc ddbc c59c bdbc e169 94bd
00000060: b75f 39bd 1989 0cbd 7cc2 80bd 9459 603d
00000070: d9fe 853d 0b5c 943d 2cd1 ba39 d14e 26bd
00000080: 2740 bdbc 246f f2bc 050d a53d f7a0 1e3b
00000090: 902c 953d dbe1 fcbd d77d b3b9 1780 723d
000000a0: 8db7 133d 3a06 bd3c 5612 02bd e514 4abd
000000b0: 0c7c 17be 59db 263b b3bb 523d ca9b 1cbe
000000c0: 64c0 823d a916 de3d bc0e e6bc 57b4 78bc
000000d0: 1807 0b3d c32c afbd 260d 5d3d f720 383c
000000e0: dabc a53d 96b2 813c ae2f 81bb 5d71 b2bd
000000f0: f7d0 2b3c 81d9 a1bd 5333 28bd f328 ab3c
00000100: 4563 b63c aeb8 243d f5f9 333d bae0 023c
00000110: 9638 1dbd e6bc 013c 1590 753d c1df 3abc
00000120: 4036 b23d 43f0 443d b90f 033c de8f 0b3d
00000130: 5984 a1bc 5696 4dbc 057d fb3c 7ae1 173d
00000140: 4872 29bc 5a27 54bd 2a83 d7bd 7d5e 26bc
00000150: 9149 78bd 22ed cd3c 9162 d13c db10 09bd
00000160: 1f2d e4bb 8c59 2a3c 4a2a ad3d d46d 913d
00000170: ca41 97bd d7eb 6a3a d561 69b8 46b6 d63d
00000180: 963d 8ebc 08dd 00bb aec6 7cbd 6b6d febc
00000190: 9208 783c f817 a0bb cf23 afba 20cf 39bc
000001a0: 4c99 0ebe 3b47 71bd 437c 09bd 1452 0bbd
000001b0: 5c2b bbbc 39e3 983c 5e9f a1bc ae79 793c
000001c0: f4d2 f6bc 5b89 8b3d e3a6 503d 4d4f 833c
000001d0: 518a 2a3d deb4 70bc 7a70 533d 925a 5d3d
000001e0: f649 7cbc 34ee 8bbb 5070 16bc fa26 b83c
000001f0: fa1c 08bb 1be6 e5bc c124 be3d a3c4 31bd
00000200: 7c97 fc3b 8b21 9dbd d1c6 dbbc 7ccb 0a3d
00000210: 6b63 613d 5d9c 63bc 266d 52bc daca d3bd
00000220: 9b1b 18bd 729d 85bd e4f7 92bc 5f32 93bc
00000230: 0c04 d43d cd9e b83d 0810 be3d 9aa5 563d
00000240: 9be0 b4b9 518e 8abc b1f8 debc 2efe 2a3c
00000250: 2c5d 6bbc 36e8 903d 93ec 083c c3a7 09bb
00000260: 6df3 75bd 73eb b5bd 0d26 b43c e935 40bd
00000270: 3704 9f3c b984 193d f5d0 c23c 04a2 693c
00000280: b79a a23d 6845 29bc 1f57 b8bc c057 1a3c
00000290: bb8b 8a3d d38e f23c 0856 b9bb 3ad5 f7bb
000002a0: 06a7 963c 214c 5bbd e4fe 6dbd fadf 87bc
000002b0: 6c1e c03c 4fd4 afbb c333 8b3c 2736 973d
000002c0: eaaf ab3b 5f3a f4bc dcb3 b6bd bcf7 843c
000002d0: e165 b9ba 9950 c6bc 41e3 60bc d1ca 633d
000002e0: 9090 4bba 2850 7a3d 8181 97bb ae9c 243d
000002f0: b148 45bd 4688 55bd a2e9 44bd cfed cd3c
00000300: 88a3 a8bc 274f 7e3c cda9 183d a9c6 6bbd
00000310: 3d47 c8bb d99a 28bd d3ee 603d 767b 643c
00000320: caee 053d bd78 7a3d c2df ec3d bd5d 25bb
00000330: 88e8 a4bd 5b3b a9bd 4d1c a3bc fba9 bdbb
00000340: 3f5f 3cbd ca70 dc3d 1e00 2f3d 96ef 2cbd
00000350: 1262 803d 2ff6 bfbb 30af f03c a446 613d
00000360: 934e 09bd 9af2 d73c d338 b33c 090a b93c
00000370: e615 0bbe 1d69 893d bc49 08be 35a1 b63b
00000380: 4b56 84bc 797d 7e3c b775 53bd 1cd7 903c
00000390: 875a 9a3d 73b1 bf3d 9117 803b 4990 783d
000003a0: 4fd8 0f3d b631 44bc c4f0 3c3d 9031 16bc
000003b0: a5f6 abbc 9323 b93d 77bb 68bd 74cb bdbd
000003c0: f356 5dbd c311 063d c952 93bd aaca 6abd
000003d0: 7254 90bd f0a5 b63d 665c babd 5e19 863d
000003e0: 40ac babd 2b90 34bd 3f0e 1ebd a53c 003d
000003f0: 3f7f 233c 718d 693d 0d1a ca3d 8ff5 a63c
0.0036447246 -0.045868233 -0.010415309 0.060628917 0.077353254 0.09120684 0.04160462 -0.07053117
-0.051114287 0.06417031 -0.033731624 -0.015775682 0.0077683697 0.04213043 0.036583122 0.023909366
-0.03468695 0.016139286 -0.05791096 0.025625354 0.0070864432 -0.027082669 -0.023146043 -0.07246757
-0.045257296 -0.034310434 -0.06287095 0.05477293 0.06542749 0.07244118 0.0003563253 -0.04060251
-0.02310188 -0.029594012 0.08059124 0.002420483 0.0728389 -0.12347766 -0.00034235299 0.059204187
0.03606372 0.023074258 -0.031755768 -0.049336333 -0.14793414 0.0025460331 0.051448535 -0.15293804
0.06384352 0.10844166 -0.028083198 -0.015179715 0.033942312 -0.085534595 0.053967617 0.011238328
0.08092661 0.015832227 -0.0039424514 -0.087130286 0.010486833 -0.07902814 -0.04106457 0.02089355
0.022264132 0.040215187 0.04393955 0.007988149 -0.038384043 0.007918572 0.05995186 -0.011405886
0.087017536 0.048080694 0.007999354 0.03407275 -0.019716429 -0.01254805 0.030699262 0.037080266
-0.010342188 -0.05179534 -0.105230644 -0.010154364 -0.060617033 0.025137488 0.025559695 -0.03346334
-0.0069633867 0.010397326 0.084553316 0.07101026 -0.07385595 0.00089615345 -5.5642642e-05 0.10483985
-0.01736335 -0.0019662995 -0.061712913 -0.031058034 0.015138762 -0.00488567 -0.0013362112 -0.011340886
-0.13925666 -0.05890582 -0.03356577 -0.034013823 -0.022847824 0.018663036 -0.019729313 0.015226765
-0.030129887 0.06813308 0.050940406 0.016029024 0.041635815 -0.01469156 0.051620938 0.054041453
-0.015398493 -0.0042703394 -0.009182051 0.022479523 -0.0020769225 -0.028063824 0.09284354 -0.043400418
0.007708488 -0.076724134 -0.026828201 0.033885464 0.055026453 -0.01389226 -0.012843406 -0.10341425
-0.0371357 -0.06524171 -0.01794047 -0.017968355 0.103523344 0.09014664 0.092804015 0.052404024
-0.0003449962 -0.016913565 -0.027218195 0.010436578 -0.014365476 0.07075541 0.008357185 -0.0021004535
-0.060046602 -0.08882799 0.0219908 -0.046926413 0.01941119 0.03748009 0.02378128 0.014259819
0.07939666 -0.010331489 -0.02250248 0.009420335 0.06764933 0.02960912 -0.0056560077 -0.0075632604
0.01839019 -0.0535394 -0.05810441 -0.016586293 0.023452006 -0.0053658853 0.016992455 0.073833756
0.0052394764 -0.02981299 -0.08921024 0.01623141 -0.0014144742 -0.024208354 -0.013726057 0.055613343
-0.0007765377 0.0611116 -0.0046235924 0.040188484 -0.048165027 -0.052131914 -0.048074372 0.02513781
-0.02058579 0.015521801 0.03727131 -0.057562504 -0.006112008 -0.0411633 0.05491526 0.013945451
0.03269843 0.0611503 0.11566116 -0.0025232874 -0.08052164 -0.08263274 -0.019910956 -0.0057880855
-0.04598927 0.107637 0.04272472 -0.042220674 0.062687054 -0.005858205 0.02938041 0.05499901
-0.0335222 0.026360799 0.021877682 0.022587793 -0.13582572 0.06709502 -0.13309377 0.0055734166
-0.016154429 0.015532845 -0.051625933 0.017680697 0.07536798 0.09360018 0.0039090593 0.060684476
0.035118397 -0.011974743 0.04612805 -0.00916709 -0.020991633 0.09039988 -0.056819405 -0.09267321
-0.054038 0.032731783 -0.071935244 -0.05732218 -0.07047357 0.08918369 -0.09099655 0.06547807
-0.09114885 -0.0440828 -0.038587805 0.031307835 0.009979068 0.057019655 0.0986825 0.020380763

lin1.bias f4 [256]
00000000: e709 c63c 34f3 273d e9d8 9bbb e7b0 10bb
00000010: 53d3 14bd 8b29 a23b 7b4d adbc 1bdd 07bd
00000020: 308c febc 1745 b43c 5321 7cbb 1cb9 143b
00000030: 1fb9 00bd 64e0 0cbb 6bcb 733c 66b7 a1bc
00000040: f5ef f63c 2eb2 e8bc ffb6 babc 7252 75bb
00000050: 0f20 053c 0c7e 713c beec 78bb 2fed e6b4
00000060: 1e45 02bd af69 9e3c 9f7d ccbb 69e5 653c
00000070: 436e 0cbd c4b1 1bbd 3d1d 5cbc 64bb d03c
00000080: bd2c 36bd 7916 a8bc 8f05 663c f102 9cbc
00000090: 1502 16bc 49d2 9bbc af93 783b a7ba 30bd
000000a0: 0d2f b4ba eaac 2ebc 45da 6fbc b85d a13c
000000b0: 8f83 a93c 238e 023d ebcf 34bc a995 d9bb
000000c0: 4916 ec3b f268 443c 938a 0bbd f5ad e0bc
000000d0: 49ef e53c 6826 fb3b 31c1 07bc 8a8b 8a3a
000000e0: bc7a e6bc f926 f93c 4564 91bc 26ae 99bc
000000f0: 1b31 edbb 95b9 873c 4917 f4bc 7076 093d
00000100: 8b68 32bb 6054 8dbc 3869 ba3a bc73 2faf
00000110: 715a d63c c699 103d ce8f 52bc c5a5 71bc
00000120: bdd7 c8bc e973 033c 0ef0 db3a f0d9 71bc
00000130: 2472 083d 3b52 26bd cdf2 a23c bb73 40bb
00000140: c4f5 1dbd a7c3 f33c fd0e c8bc 07e6 c6bc
00000150: 5fb2 433b ebf5 ffbb 514d d43c f7e0 bbbb
00000160: bfa5 f33b 7bf2 b0bc 998c cb3a 88e2 403b
00000170: 7b83 543c e25b 943c 9de1 9abc c931 8bb6
00000180: a057 dabc 6d58 2abc 5007 7abc 7201 06bc
00000190: e057 c9bc 61ef d23b 32e1 0bbd 4b45 3c3d
000001a0: b957 96bc 67a5 a5bc 6e7c 6ebd 9d54 023d
000001b0: a3b3 febc 7d73 b73b 4367 c6bc 164c 093d
000001c0: 2549 e4bc 6819 a1bb 44be d9bb 3d47 1fbd
000001d0: af70 a73c b9fe a03c ac94 333b efc9 aa3c
000001e0: e379 e6bc fc4d b73c 078f 8abc e0e0 32bd
000001f0: 21cc b4bc 24d5 8abc 5c0b 29bd c94b 1bbc
00000200: 8b08 293c 1dbe 173a 8735 00bd f8c7 4fbc
00000210: 603d 03bd 252e e4bc d87b 10b8 c688 cbba
00000220: 6d04 48bc 2335 05bd 6fff 903b 6123 c63c
00000230: 85f7 9fbc dd9c 7dbc 4359 41bc 1a96 9ebc
00000240: 6902 de3b 4197 c7bc 52ee 833c 05d0 983c
00000250: 0a18 783c 6f66 04bd 73c2 533c 6bcd c1bc
00000260: 9af4 ff3c 826e ca3c 20bf c83c 81f1 173c
00000270: 943c 1a3d 7f90 cdbc e94b 06bc e721 0d3d
00000280: ea12 893c bc2c e33c d6cf 163d 851e a6bc
00000290: 8597 62bd e70c 803c a579 08bc 19c2 88bc
000002a0: b02b b8bc 0233 273c 9c04 9cbc 2079 4fbc
000002b0: 0c92 0d3d 3451 b0bc 59a8 35b9 c1a2 ab3c
000002c0: ada0 c4bc 3575 263c 957a 29bc e80a 0dbd
000002d0: de69 ec3b 5c6b c9bc 1d27 89bc a52e 0abd
000002e0: b846 633c a4c2 eabc d999 e9b9 3ce5 58bb
000002f0: 54a0 efbb ac93 253d dcff ff3b f851 22bd
00000300: b4f1 4ebb be42 e73a d223 00bd 6084 d1bc
00000310: c128 8fbc 688c d83a 1f5e 97bc b749 e23c
00000320: c1bd 80bc a4b8 94bc f422 85bb c525 ddbc
00000330: 5b77 9f3b 6aae a23c bff1 cbbc ef35 08bd
00000340: 0052 0ebd 5d79 74bc e5ed f8bc 07c3 323b
00000350: 81f2 073d 0a83 273c d7e6 8cbb 7903 bfbc
00000360: 61c2 21bd 6909 e9bc 8f4e d9bc 2cd6 e5ba
00000370: ebc0 b23c 81ef 1f3c a51c d9bb 7597 46bd
00000380: 9374 0e3d b040 56bb 5ccd 42bb c24d 723b
00000390: 842f 873c 63aa 97ba c6d6 c0bc 8bfc 5ebb
000003a0: 902f ae39 f71c 8c3c 8c1c dab9 4a1e 213d
000003b0: 6508 bb3c 61c7 ccbc 1273 58bd 00a8 0e3c
000003c0: 5660 02ba 5511 963c 18fd 813c 15e3 7e3c
000003d0: 66c7 44bc e443 7fbb 111e 22bd a602 d13c
000003e0: aad9 dbbc 525a c63c f373 5dbc e979 083d
000003f0: f657 44bc f12b 87bc b2cb b33c cb75 0e3b
0.024174644 0.04100342 -0.0047560823 -0.0022078098 -0.036334347 0.0049488 -0.02115511 -0.033169847
-0.031072706 0.0220056 -0.0038472011 0.0022693342 -0.031426545 -0.0021496052 0.014880042 -0.019740772
0.030143717 -0.028405275 -0.022792337 -0.0037433174 0.008125319 0.014739525 -0.0037982906 -4.3013412e-07
-0.031804197 0.019337503 -0.006240561 0.014031746 -0.03428484 -0.038011327 -0.013434705 0.02547998
-0.04447626 -0.020518528 0.014039411 -0.019044371 -0.00915577 -0.01902117 0.0037929823 -0.043146756
-0.0013746932 -0.010661343 -0.014639442 0.019698009 0.020692615 0.031873833 -0.0110359 -0.0066401553
0.007204805 0.011987912 -0.0340677 -0.0274267 0.028068202 0.0076644905 -0.0082858065 0.001057015
-0.028134696 0.030414091 -0.017748008 -0.018759798 -0.00723852 0.016567985 -0.02979626 0.033560216
-0.0027222957 -0.017252147 0.0014222031 -1.5957274e-10 0.026166173 0.0353029 -0.0128516685 -0.014748995
-0.024516935 0.008023241 0.0016779916 -0.014761433 0.033311978 -0.040605765 0.019891167 -0.0029365856
-0.03856446 0.02975638 -0.02442121 -0.024279607 0.0029860956 -0.007811298 0.025915774 -0.005733605
0.00743553 -0.021599999 0.0015529572 0.0029431898 0.0129708005 0.01811022 -0.018906409 -4.1483186e-06
-0.026653111 -0.010397059 -0.0152605325 -0.0081790555 -0.024578035 0.0064372276 -0.03415031 0.04596452
-0.018352376 -0.020220472 -0.058224134 0.031818975 -0.031091517 0.005598484 -0.02421916 0.033519827
-0.02786691 -0.0049163587 -0.006644996 -0.038886297 0.020439474 0.019652711 0.0027401848 0.020848243
-0.028134292 0.022376053 -0.016913904 -0.04367149 -0.022069992 -0.016947336 -0.0412706 -0.009478518
0.010316978 0.0005788522 -0.031301048 -0.012681954 -0.032040954 -0.027854035 -3.4447614e-05 -0.0015528433
-0.012208086 -0.03252138 0.0044249813 0.024186792 -0.019527206 -0.015479294 -0.011801067 -0.019358683
0.0067751897 -0.024364116 0.01610485 0.018653879 0.01514245 -0.03232425 0.012924778 -0.023657521
0.031244565 0.024710897 0.024505198 0.009273888 0.037655428 -0.025093315 -0.008196809 0.03445616
0.016732652 0.027731292 0.0368193 -0.020278225 -0.05532028 0.015631152 -0.008329784 -0.016694115
-0.02248177 0.010205032 -0.019045167 -0.012663156 0.03456311 -0.021523096 -0.0001732422 0.02095163
-0.024002397 0.01015978 -0.010344167 -0.03443423 0.007214769 -0.024587326 -0.016742283 -0.03373589
0.013871841 -0.028657265 -0.0004455585 -0.0033095619 -0.007312814 0.040424034 0.0078124832 -0.039628953
-0.0031577172 0.0017643792 -0.03128416 -0.025575817 -0.017475488 0.0016521337 -0.018477498 0.02762304
-0.015715482 -0.01815445 -0.0040630046 -0.026995549 0.004866523 0.019858558 -0.024895547 -0.03325456
-0.03474617 -0.014921513 -0.030386874 0.002727689 0.033190254 0.010224113 -0.004299979 -0.023317086
-0.039492015 -0.02844687 -0.026526717 -0.0017535142 0.021820506 0.009761692 -0.006625729 -0.048484284
0.034779143 -0.0032692365 -0.0029724455 0.0036972617 0.01650215 -0.0011571165 -0.023539912 -0.003402504
0.00033223303 0.017103655 -0.0004160147 0.039335527 0.022831151 -0.024997415 -0.052844115 0.0087070465
-0.00049734616 0.018318811 0.015867755 0.01555707 -0.012010431 -0.0038950378 -0.039579455 0.025513958
-0.026837189 0.02421299 -0.013516414 0.033319388 -0.011983862 -0.016500445 0.021947715 0.002173769

lin2.weight f4 [128, 256]
00000000: f550 6fbd 439e a7bd 9449 2f3d 9dda 0abd
00000010: c116 5ebc de03 6d3e 5268 2cbc 2703 5e3d
00000020: 2c0e c9bd cf68 d2bd a132 b13d 8837 093e
00000030: 11a1 3cbc 5f5e 133d 6ed0 dd3b 471c 433c
00000040: 73d2 3f3d 994c 913b c371 163d b655 113e
00000050: d9cd 58ba 2524 d43d d918 16bd 56e4 fc2e
00000060: 5342 6cbd 12b2 e4bc e2ec 2f3d 009c febc
00000070: bad8 a33d 4b1d 0a3d dd3e 1bbe ea52 5f3d
00000080: f887 ee3d 1250 eb3d e32c a53d b95f b33c
00000090: d87a 073e 60ce 133d 1159 0bbe 7868 373d
000000a0: 21fa 3cbd 88b7 c7bd 61bf 4fbd 0158 043e
000000b0: 7d36 99bd bd10 273e e907 833e ab5e 69bd
000000c0: 355e 243d c549 bfbd b7fd a1bd 522d db3d
000000d0: d540 7b3d e8e1 dd3c 782d 083e dd71 923d
000000e0: 310a bdbd 0b08 e13c a69c 623c f1ba 5a3d
000000f0: 3cf4 3a3e 9c8a 4bbd 4800 94bd 8a16 2d3d
00000100: 6e03 2e3d fb6e f8bc c043 53bd ae27 b1b4
00000110: 2d9f bbbd c4fd ebbc fa6a 063d 1552 843d
00000120: 659f 1ebe a1a6 d3bd 8b2d 593d 7a88 c13b
00000130: 5f1c a13d 060c 533e c946 1e3c 713c f0ba
00000140: 0f04 dd3d 2971 cebd d292 113c c103 71bc
00000150: acdd 6bbd d3ec bc3c 7f05 ffbc f4f3 e0bc
00000160: 51de e83b ec3c 02bc b717 cc3c d80f ba3d
00000170: 483b 263d 4753 41be 6f81 bbbc e5ae 7eae
00000180: 84f2 95bd eaa3 6c3c 64dd 4bbd a371 69bd
00000190: 668b 63bb 5783 713d c8c7 20bd 16d4 33bd
000001a0: d28c f33c d438 9ebd 912f acbd dcae d93c
000001b0: ed29 9c3c 9cab 27bd 8627 5c3e f91c a9bb
000001c0: 1c30 103c bebf 96bc 07f4 b03d ab33 e6bd
000001d0: 4f73 1f3e fe0f 5bbd c4b9 b53b 63fd 9dbd
000001e0: c1c3 21bd 261a 7b3d 4a1f e1bc 03d1 b23d
000001f0: 6c4e 13bc bd00 90bd 73d3 493e 9adf f6bc
00000200: 950b 6e3d 7eee 8abd 6bb4 243e b78d 433e
00000210: 12b2 0c3d 2887 86bd f8d4 22bd 8305 a43c
00000220: fdf0 063c 36d6 ffbc 48a0 b7bd 36fa 06be
00000230: 2c51 5d3d 8ee6 b03d e54d 0dbe d19b 153d
00000240: 04fc 79bd 8e87 7ebd 4538 0bbd 16b2 2cbd
00000250: 3fb0 da3d b46d afbc 1afe 313d 87d2 ba3c
00000260: 9c3f 1b3d 30fd 3e3d cd7e 493e 86ed 00be
00000270: 1942 cd3d 2da1 94bd 2ccd be3d 5f7d b13b
00000280: 7d57 8b3d fe34 c1bc 6baf 3bbd 8566 ddbd
00000290: ad5e a2bc 6d5a 2f3d e827 14bd 448e b9bd
000002a0: 959b 77bd 082b 63bc 7205 973e a400 2a3d
000002b0: ecb2 d73b 4415 49bc 3a9f 87bc 2db4 61bc
000002c0: 1eee 43bd c52f 2e3d 8ece b43d 3b04 67bd
000002d0: 3d6a 85be 8f65 c1bc 31d5 db3d 6fde 7db9
000002e0: 306e 173e cb1f 0dbb 5566 873d 7bdf b63d
000002f0: dfa3 b73c f7bd 1ebd 3c95 49bd ade2 a3bd
00000300: fcac cbbc 5bf4 d43c db41 293e 491c 17be
00000310: f109 b6bb 82ba a33d f45e e33c 78d0 023e
00000320: cd8b 97bd 54df 173d c5be cdbd 4a88 8dbc
00000330: 81cb 99bd 5c3b c13d 89de 05bc 3c88 9abd
00000340: 0dc1 08bc fa9f 2f3e ff7e 55bc b3f9 14be
00000350: 16b8 b53d 3a5e 3bbe 4839 d53d 2659 033c
00000360: ae80 983d 59ec 62bd 428f e6bc 9733 4e3e
00000370: 15c0 453c 1ed8 debd 7b94 f53b c507 ac3d
00000380: 3f09 36bd fcda e93d a5da a4bd dc26 b33c
00000390: 271b 8cbd eeba 3abd cabe 173d 02fa b6bc
000003a0: 4a32 bc3d 65eb 54bd b1b2 a4bd b793 773d
000003b0: 19b9 59bd e8f2 30bd 30b2 843c 9fcc 4a3b
000003c0: 3883 dbb9 9b85 ca3c 2135 e7bc e6e0 fd39
000003d0: 1a2f c63d c67e 07bd c07a f43d 0eb4 8c3d
000003e0: e3cc fdbc 54e4 b6bc 3e4b 503c 2c69 8ebd
000003f0: 3f03 0cbd 90c0 7dbd d82f 333d f5bf 293d
-0.058426816 -0.08184483 0.04279478 -0.033899892 -0.01355523 0.23146006 -0.010522919 0.054202225
-0.09817156 -0.10273897 0.08652235 0.1340009 -0.011513011 0.03597867 0.0067692315 0.011908597
0.04683156 0.00443418 0.036729585 0.14192852 -0.000827042 0.103584565 -0.03664479 1.1500194e-10
-0.05768044 -0.027916942 0.04295052 -0.031080246 0.08000322 0.033719342 -0.15160699 0.054522432
0.11647028 0.114898816 0.08065202 0.02189623 0.13230455 0.036085486 -0.13608195 0.044777364
-0.04613698 -0.09751803 -0.050719623 0.12924196 -0.07481096 0.16314979 0.25591972 -0.056975048
0.040128905 -0.09340242 -0.079097204 0.107020035 0.061341126 0.02708526 0.13298595 0.07150624
-0.092304595 0.027469655 0.013831293 0.053400937 0.1825723 -0.049692735 -0.07226616 0.042257823
0.04248374 -0.030326357 -0.051578283 -3.299769e-07 -0.0916122 -0.028807528 0.032816865 0.064609684
-0.15490492 -0.10334516 0.05302195 0.005906162 0.078667395 0.20610055 0.009660431 -0.001832856
0.1079179 -0.10080177 0.008885102 -0.014710368 -0.05758445 0.023062145 -0.03113055 -0.027460076
0.0071065803 -0.007949095 0.024913652 0.09085053 0.04058388 -0.18879424 -0.022888867 -5.790825e-11
-0.07321647 0.014443377 -0.04977168 -0.056993138 -0.003472054 0.058963146 -0.039253026 -0.043903433
0.029730234 -0.07725683 -0.0840751 0.026572637 0.01906296 -0.040935144 0.21499452 -0.0051609245
0.008800533 -0.018401977 0.086402945 -0.11240324 0.1557133 -0.05348205 0.0055458266 -0.07714345
-0.039493326 0.061304234 -0.02748074 0.08731272 -0.008990865 -0.07031391 0.19709568 -0.030135918
0.058116514 -0.0678377 0.16084449 0.19097029 0.03434951 -0.06568748 -0.039753884 0.02002216
0.008236167 -0.031230073 -0.08966118 -0.13181385 0.05403249 0.08637725 -0.13799246 0.03652555
-0.061031356 -0.062140994 -0.03398921 -0.042162023 0.106781475 -0.021414615 0.04345522 0.022805465
0.03790246 0.046628177 0.19677277 -0.12590608 0.10022373 -0.07257304 0.09316477 0.0054165567
0.068037964 -0.023584839 -0.04582159 -0.1081057 -0.019820536 0.042810846 -0.03617087 -0.09060338
-0.06045111 -0.01386524 0.29496342 0.041504517 0.0065826084 -0.0122731365 -0.016555417 -0.013775867
-0.047834508 0.042526025 0.0882846 -0.05640052 -0.26057616 -0.023607997 0.107340224 -0.00024210823
0.14788127 -0.0021533843 0.06611315 0.08929344 0.022417007 -0.038755383 -0.049214587 -0.08002219
-0.024862759 0.025995424 0.16529028 -0.14756884 -0.0055553843 0.07994558 0.027755238 0.12774837
-0.07399712 0.037078217 -0.10046152 -0.017276902 -0.075095184 0.0943515 -0.008170732 -0.07545516
-0.008346808 0.1715087 -0.0130307665 -0.14548378 0.08873002 -0.18297663 0.10411316 0.00801686
0.07446419 -0.05540118 -0.028144483 0.20136867 0.012069722 -0.10881065 0.007494507 0.083999194
-0.04444241 0.11418721 -0.08049516 0.021869116 -0.068411164 -0.045588426 0.037047185 -0.02233601
0.091892794 -0.051982302 -0.08041895 0.060443606 -0.05315504 -0.043200403 0.016198248 0.0030944718
-0.000418687 0.024721911 -0.028223576 0.00048423483 0.09676953 -0.033079885 0.11937475 0.0687028
-0.030981487 -0.022325672 0.012713252 -0.06953654 -0.034182783 -0.06195122 0.0437468 0.04144283

lin2.bias f4 [128]
00000000: bfde fc3c c6bd 803d a36f fc3d b37c aab9
00000010: 4440 8c3d b0be a33d 7632 063d c58c 693d
00000020: a8f1 80bb 8bc9 cf3c 91d2 b43d 0bdc 5dbc
00000030: 49da a63d c235 cd3d 2db5 053c 0e18 923d
00000040: 4100 943d 40db 883c c948 db3d a4d0 e73c
00000050: 0dad 973d b5ee 513d 296e 8c3d dcb6 6b3d
00000060: 4c0d ce3c 944b e53c 91af ae3b 9edc bc3d
00000070: 77f7 ec3c c1c3 b23d 1a2a b33c ff61 d23d
00000080: 9aeb 0a3d 8aa9 d4bc 93ff bd3b 2c39 84bc
00000090: a21d 7a3d 3c14 07bd 887c 813d ba21 0e3e
000000a0: 55e2 0f3d 1ee1 9539 c0dc 753d c043 25bc
000000b0: 29cd 5dbd 7a97 b33d 8e9a abbc 3470 2ebc
000000c0: aac9 4a3d c256 b53d 8a41 6e3d 70a2 813c
000000d0: 9698 1b3d 314d 673d 307f 143e 43fb 153c
000000e0: 4722 04bc 9d29 803d 586b 5e3d 913f 8c3d
000000f0: e9cc dc3d 0719 95bc 52d8 fd3c 43ab c83d
00000100: c18b ee3d f0f1 023d 4166 863a da90 a53d
00000110: 9b2c 0d3c 98c8 083d 0e03 623a e35a 46bc
00000120: 8375 803d debd 2f3d 0f28 0fba e69d cb3d
00000130: ca14 663c 4076 323d e050 1f3c 565f f0bb
00000140: 4b07 f53c a9ff 703d b4aa 433c 1328 c03c
00000150: ade0 133d d996 b83b 93df f13d 1604 663d
00000160: 1281 9e3c 4c80 f13d 8867 9f3d e73f 123d
00000170: 903e 1c3d 8a80 f23b bc25 503d 8e19 953d
00000180: d8c2 3fbd 7092 8c3d 97f2 863c 36d4 333e
00000190: 2540 2f3d 2a45 293d bc16 8b3d c653 2a3c
000001a0: 7494 8d3d 7ef2 073c fc6d fdbb 6dbe 963d
000001b0: fa8d b7bc e355 7e3d 57ba ee3d 1a4b 32bc
000001c0: e23f 853a ec7a 6e3c 0765 f33c d0ff fc3d
000001d0: 0548 d53d dd97 803d 54ed d93c f914 c33b
000001e0: 930c 9a3d 0bdd 293c d864 a13d 2283 21bd
000001f0: fd89 7d3d e054 a63d 4577 5bbc 981d f43c
0.030867932 0.062861964 0.123259805 -0.00032517835 0.06848195 0.07995355 0.032762967 0.057019014
-0.0039350577 0.025364658 0.08829225 -0.013541232 0.08147103 0.10020019 0.008160871 0.07133494
0.07226611 0.016706109 0.10707242 0.02829773 0.07406054 0.05125304 0.06856949 0.057547435
0.025152825 0.02799014 0.0053309877 0.09221767 0.028926594 0.08728743 0.021870662 0.102725975
0.033916093 -0.025959749 0.005798289 -0.016140543 0.061063416 -0.03297828 0.063225806 0.13880053
0.035127956 0.0002858722 0.060024977 -0.010086954 -0.054150734 0.08769126 -0.02094772 -0.0106468685
0.049508728 0.08854438 0.05816797 0.015824527 0.037987314 0.0564701 0.14501643 0.009154144
-0.008064813 0.06257937 0.05430159 0.06848062 0.10781271 -0.01820041 0.030986939 0.097982906
0.1164775 0.03196901 0.0010253863 0.08084269 0.008616592 0.033394426 0.0008621671 -0.01210663
0.062724136 0.04290568 -0.0005460986 0.09942226 0.014043042 0.043569803 0.009723872 -0.0073355837
0.029910704 0.058837567 0.011942554 0.023456609 0.03610294 0.005633217 0.118102215 0.05615624
0.019348655 0.11792049 0.07783419 0.035705473 0.0381456 0.007400577 0.050817236 0.07280265
-0.046816677 0.06863868 0.016473098 0.17561421 0.042785782 0.041325726 0.067914456 0.01039595
0.06913081 0.008297561 -0.0077340584 0.073605396 -0.022406567 0.062093627 0.11656635 -0.010882163
0.0010166133 0.014555674 0.02971126 0.1235348 0.10414127 0.062789656 0.026602425 0.005953428
0.075219296 0.010367642 0.078805625 -0.0394317 0.061899174 0.08121657 -0.013395135 0.029799268

pi_lin.weight f4 [36, 128]
00000000: 708d 453d 1b0f 963d e70a 8a3d caad bdbe
00000010: 97a2 b03d f28b 953d 90e7 ae3d 048c d63d
00000020: 92b3 673d 3eb0 b23c 1b80 803d 5f75 75bd
00000030: 449f 8cbe fcdc d03d 8025 8f3d 994c 19bd
00000040: d1ca 2bbf ff64 59bc 5fa3 bdbe ea69 12bf
00000050: 2769 c6bb 25ee 323d c0d0 473c 4a1d 2a3d
00000060: dfc7 3ebe e391 8abd 93c5 09bf 20ed 963d
00000070: c09b 1c3d cf7a 693d f7e7 983d 7c2f 1b3d
00000080: 5263 813d 9455 60bd 2025 f33c 7a00 103b
00000090: 8211 39bf 146c 8e3d fef9 fabd f6e4 813d
000000a0: d750 dbbe 8f79 b1bc e842 f1bc 37de 8f3d
000000b0: 87f2 883d 919c 683d f0bf 443d b823 513d
000000c0: dd3c 8f3d d6d2 3f3d a170 823d 0a48 ae3d
000000d0: 9b0b 443d 2c47 9b3d c87a 923d af8d c03d
000000e0: 954c 3e3d 187f 983d d083 91bc eedd 50bd
000000f0: 0518 febd 4280 823d e2fa 0d3d 9ee6 a73d
00000100: 33b3 9c3d 65a9 db3a 93a7 0b3c 034e 363c
00000110: a236 e7be 2a70 9d3d 0dfd cabe 10f0 bfbe
00000120: 22ce 383d c194 cb3d 3b7f bc3d 12ac e13d
00000130: fb06 94be 1a2d af3d bbb0 51bd 0109 093d
00000140: 5a92 b0bc 76f1 6fbe 06c3 a53d fea8 86be
00000150: 1971 9c3d 6501 4b3d e08c a63d fb80 0d3d
00000160: 8f31 68be 303b cb3d 0109 ab3b 881f 793c
00000170: b029 eabd 10ca 763d edef e93c 3027 323d
00000180: 48b8 a43d 228f c23d 8c70 7dbd bafc a13d
00000190: 65ea 8abc 020b 6c3d 27ce 313d c4c1 fabe
000001a0: 50af 793d a98d d73d 9e0f 643c b221 6c3d
000001b0: c272 813d cdf7 b23c 2bc1 d3be 23cd febe
000001c0: 4905 14bc 238b 7b3d 9e38 843d 602b 923d
000001d0: 772c 463c cb4c 7b3d 4bb4 76bd 116c b13d
000001e0: f42d 01bf c116 af3d 5349 933d 0332 923d
000001f0: 1314 b43d fe16 743d b6de 973c be96 6fbd
00000200: b9be 053c 2e79 763d 507f 8c3c 1f85 c23d
00000210: a4bf e93d 83ec e23d 1d80 b83d 9c22 9bbc
00000220: b025 653d fa7a b43d bd97 f3bd b557 dbb9
00000230: 0773 87be e388 46bd e965 cc3d ebdf c43d
00000240: 1f11 8e3d 93aa 963c 934a 1fbe 6efb 44be
00000250: a5d5 6b3d aec9 a8bd 81cc 303d 3796 2cbd
00000260: c256 a5bd 8acf 2c3d d0fb 5f3d d0dd 453d
00000270: cedc dd3c f6c0 f13c 204b c5bd cbfe fd3c
00000280: 52db 7e3d 89ba 3f3c 73ff 9f3d f810 4b3d
00000290: 664b 5cbe 227a c73d ee4d 5d3d d419 053c
000002a0: fdcf b73d 51b8 243d 46c8 523c e9d7 be3d
000002b0: 17a8 ab3d b05e ed3c dfb2 a23d 7340 5c3d
000002c0: 5c6b 4f3c ff63 043d 9af5 edbd 572f 5a3d
000002d0: ff67 423d 358a 3bbd b959 d6bd 58e8 b0bc
000002e0: 438c 8f3d 2278 bc3d 8a53 9f3d 52f3 693b
000002f0: 5008 64bd 3ddf 803d 2a63 323d e83d 7e3d
00000300: 6e67 e8bd 6c35 01bf a037 1dba a8f1 733c
00000310: c78f 78bd 76c8 e5be 894b 39bf 1ff8 a83d
00000320: 4f87 393d 0cd2 ad3d 3256 bcbc 5742 85bd
00000330: 4c62 ae3d 735f 4e3d d7df 88bd c181 b43d
00000340: be88 8abb a218 a23d 0a48 51bd fd67 963d
00000350: 32a7 e9be 921a 763d 0590 2f3d 02c9 133c
00000360: 02f6 b7bd a54b 533d 95a2 b83d 92cb 693d
00000370: c6c9 a83d 171a db3c 89d2 673d be9c 26bf
00000380: 1a90 db3d b3fa 9f3d 3f5c 6b3d 6e0b ecbe
00000390: 7abc 1fbd e6df 193d f3ca 053d 8381 193e
000003a0: 6370 ae3d 518e 7e3d 8cc1 c7be b80d e839
000003b0: b9b0 1b3b 1dc1 813d 9472 5e3d 11a7 bf3d
000003c0: d4be 443d 9643 fc3b 0c7e bf3d 39c0 633d
000003d0: 2fb5 3bbc c78d fa3b d9d2 82bd 8f85 8d3c
000003e0: d869 38be fdca 9a3b f670 7b3c 61c1 4d3d
000003f0: 4aa4 333d b2f1 a23d eaf3 8abc 958c 803d
0.04823059 0.073271 0.06740361 -0.37046653 0.086247616 0.07302083 0.08540261 0.104759246
0.056567736 0.021812554 0.06274434 -0.059926387 -0.2746526 0.101983994 0.069895744 -0.037426565
-0.6710635 -0.013268708 -0.37038705 -0.5719286 -0.0060550156 0.043684144 0.012195766 0.04153184
-0.18630932 -0.06766107 -0.538171 0.07369447 0.038234472 0.057001885 0.07466119 0.03788708
0.06317772 -0.054769114 0.029680789 0.002197294 -0.7229234 0.06954208 -0.122547135 0.06342499
-0.42835113 -0.021664409 -0.029450849 0.07024806 0.066868834 0.05678994 0.04803461 0.051059455
0.069940306 0.04683193 0.063691385 0.08509834 0.04786263 0.07581934 0.07152325 0.09402024
0.046459753 0.07446116 -0.017763048 -0.0509929 -0.12406925 0.063721195 0.03466309 0.081982836
0.07651367 0.0016758858 0.0085238395 0.011126998 -0.4515887 0.07687409 -0.39646187 -0.3748784
0.04511846 0.09940482 0.09203955 0.11019148 -0.28911576 0.08553524 -0.051193934 0.033455852
-0.02155416 -0.23431954 0.080938384 -0.26300806 0.07638759 0.049561877 0.081323385 0.034546833
-0.22675155 0.099233985 0.005219579 0.015205272 -0.114337325 0.060251296 0.028556788 0.043494403
0.08042961 0.09499957 -0.06187491 0.07909532 -0.016957471 0.057627685 0.043409493 -0.48975956
0.060958207 0.105250664 0.013919739 0.05764932 0.063207164 0.021846676 -0.41358313 -0.49765882
-0.009034463 0.061411988 0.06456111 0.071371794 0.012095562 0.061352532 -0.060230535 0.0866319
-0.50460744 0.08549262 0.0719172 0.07138445 0.08792891 0.05959224 0.018538814 -0.05849337
0.008163148 0.06017416 0.017150551 0.09498047 0.11413506 0.11080267 0.09008811 -0.018937401
0.055944145 0.088125184 -0.11894176 -0.00041836282 -0.26454946 -0.04847039 0.09980375 0.096130215
0.06936859 0.018391883 -0.15555792 -0.19236538 0.057576794 -0.08241592 0.04316378 -0.042135444
-0.08073188 0.042190112 0.054683506 0.04830724 0.027082827 0.029510956 -0.096334696 0.031005284
0.06222088 0.011702188 0.07812395 0.04957673 -0.21513137 0.09740092 0.054029398 0.008123834
0.089752175 0.04021484 0.012865132 0.09318525 0.0838167 0.028975815 0.07944273 0.0537724
0.012659874 0.032321926 -0.116191104 0.053267803 0.04746246 -0.0457861 -0.10466332 -0.021595165
0.07009175 0.09202601 0.07779606 0.0035698009 -0.05567199 0.06292579 0.0435516 0.062070757
-0.11347853 -0.5047214 -0.00059973635 0.014889158 -0.06068399 -0.44879502 -0.7238088 0.0825045
0.045295056 0.08487329 -0.02299032 -0.06506794 0.085148424 0.050383996 -0.06683319 0.08813811
-0.0042277267 0.079148546 -0.051094092 0.07344053 -0.45635372 0.060083933 0.042861957 0.009020092
-0.08982469 0.051585812 0.09015385 0.057078905 0.0824161 0.026745839 0.056597266 -0.6508292
0.107208446 0.07811489 0.05746102 -0.4610247 -0.038998105 0.03756704 0.03266425 0.14990811
0.0851753 0.062147442 -0.39014852 0.0004426071 0.0023756458 0.063356616 0.05430849 0.09358037
0.04803355 0.0076984866 0.093502134 0.05560324 -0.011456772 0.0076462957 -0.06387872 0.0172756
-0.18009126 0.004723905 0.015346756 0.05023325 0.04385785 0.07956256 -0.01696201 0.06276814

pi_lin.bias f4 [36]
00000000: 02e4 2f3e bff7 47be 0ded 343d d9bf 373e
00000010: dcf7 97bd bb26 683e ce74 0ebe 8d62 213d
00000020: 4b01 c43d 32ae 813d 5907 01be fee7 14be
00000030: cdae 44bd 3ddf 0cbd b81b 43be 0c1f 43be
00000040: 4c72 0bbd 2568 043e 138f f73d 1aea 903d
00000050: 4b23 43be 9c1b 43be 16f3 f5bb a2a2 8b3c
00000060: cc5f b8bd 5f2e fdbd 68e5 ed3d e39d 783d
00000070: 9556 a63d d1aa 55be 1698 a83e 658b a6bd
00000080: 4aa2 3b3e 7e5c 60bd bfa3 7cbe 11a3 613e
0.17176822 -0.19528101 0.04417138 0.17944278 -0.07420322 0.22671025 -0.13911745 0.039400626
0.09570559 0.06332053 -0.12600459 -0.14541623 -0.048018266 -0.034392584 -0.19053543 -0.19054812
-0.03404455 0.12930353 0.12087836 0.07075901 -0.19056432 -0.19053501 -0.0075057847 0.017045323
-0.09002647 -0.1236236 0.116160214 0.060697448 0.08121983 -0.20865943 0.32928532 -0.08132056
0.18323627 -0.054775707 -0.24671839 0.22034861
